DataParallel(
  (module): FBNet_Stochastic_SuperNet(
    (first): ConvBNRelu(
      (conv): Conv2d(3, 32, kernel_size=(3, 3), stride=(1, 1), padding=(1, 1), bias=False)
      (bn): BatchNorm2d(32, eps=1e-05, momentum=0.1, affine=True, track_running_stats=True)
      (relu): ReLU(inplace=True)
    )
    (stages_to_search): ModuleList(
      (0): MixedOperation(
        (ops): ModuleList(
          (0): IRFBlock(
            (pw): ConvBNRelu(
              (conv): Conv2d(32, 32, kernel_size=(1, 1), stride=(1, 1), bias=False)
              (bn): BatchNorm2d(32, eps=1e-05, momentum=0.1, affine=True, track_running_stats=True)
              (relu): ReLU(inplace=True)
            )
            (dw): ConvBNRelu(
              (conv): Conv2d(32, 32, kernel_size=(3, 3), stride=(1, 1), padding=(1, 1), groups=32, bias=False)
              (bn): BatchNorm2d(32, eps=1e-05, momentum=0.1, affine=True, track_running_stats=True)
              (relu): ReLU(inplace=True)
            )
            (pwl): ConvBNRelu(
              (conv): Conv2d(32, 16, kernel_size=(1, 1), stride=(1, 1), bias=False)
              (bn): BatchNorm2d(16, eps=1e-05, momentum=0.1, affine=True, track_running_stats=True)
            )
            (se4): Sequential()
          )
          (1): IRFBlock(
            (pw): ConvBNRelu(
              (conv): Conv2d(32, 32, kernel_size=(1, 1), stride=(1, 1), groups=2, bias=False)
              (bn): BatchNorm2d(32, eps=1e-05, momentum=0.1, affine=True, track_running_stats=True)
              (relu): ReLU(inplace=True)
            )
            (dw): ConvBNRelu(
              (conv): Conv2d(32, 32, kernel_size=(3, 3), stride=(1, 1), padding=(1, 1), groups=32, bias=False)
              (bn): BatchNorm2d(32, eps=1e-05, momentum=0.1, affine=True, track_running_stats=True)
              (relu): ReLU(inplace=True)
            )
            (pwl): ConvBNRelu(
              (conv): Conv2d(32, 16, kernel_size=(1, 1), stride=(1, 1), groups=2, bias=False)
              (bn): BatchNorm2d(16, eps=1e-05, momentum=0.1, affine=True, track_running_stats=True)
            )
            (shuffle): ChannelShuffle()
            (se4): Sequential()
          )
          (2): IRFBlock(
            (pw): ConvBNRelu(
              (conv): Conv2d(32, 96, kernel_size=(1, 1), stride=(1, 1), bias=False)
              (bn): BatchNorm2d(96, eps=1e-05, momentum=0.1, affine=True, track_running_stats=True)
              (relu): ReLU(inplace=True)
            )
            (dw): ConvBNRelu(
              (conv): Conv2d(96, 96, kernel_size=(3, 3), stride=(1, 1), padding=(1, 1), groups=96, bias=False)
              (bn): BatchNorm2d(96, eps=1e-05, momentum=0.1, affine=True, track_running_stats=True)
              (relu): ReLU(inplace=True)
            )
            (pwl): ConvBNRelu(
              (conv): Conv2d(96, 16, kernel_size=(1, 1), stride=(1, 1), bias=False)
              (bn): BatchNorm2d(16, eps=1e-05, momentum=0.1, affine=True, track_running_stats=True)
            )
            (se4): Sequential()
          )
          (3): IRFBlock(
            (pw): ConvBNRelu(
              (conv): Conv2d(32, 192, kernel_size=(1, 1), stride=(1, 1), bias=False)
              (bn): BatchNorm2d(192, eps=1e-05, momentum=0.1, affine=True, track_running_stats=True)
              (relu): ReLU(inplace=True)
            )
            (dw): ConvBNRelu(
              (conv): Conv2d(192, 192, kernel_size=(3, 3), stride=(1, 1), padding=(1, 1), groups=192, bias=False)
              (bn): BatchNorm2d(192, eps=1e-05, momentum=0.1, affine=True, track_running_stats=True)
              (relu): ReLU(inplace=True)
            )
            (pwl): ConvBNRelu(
              (conv): Conv2d(192, 16, kernel_size=(1, 1), stride=(1, 1), bias=False)
              (bn): BatchNorm2d(16, eps=1e-05, momentum=0.1, affine=True, track_running_stats=True)
            )
            (se4): Sequential()
          )
          (4): IRFBlock(
            (pw): ConvBNRelu(
              (conv): Conv2d(32, 32, kernel_size=(1, 1), stride=(1, 1), bias=False)
              (bn): BatchNorm2d(32, eps=1e-05, momentum=0.1, affine=True, track_running_stats=True)
              (relu): ReLU(inplace=True)
            )
            (dw): ConvBNRelu(
              (conv): Conv2d(32, 32, kernel_size=(5, 5), stride=(1, 1), padding=(2, 2), groups=32, bias=False)
              (bn): BatchNorm2d(32, eps=1e-05, momentum=0.1, affine=True, track_running_stats=True)
              (relu): ReLU(inplace=True)
            )
            (pwl): ConvBNRelu(
              (conv): Conv2d(32, 16, kernel_size=(1, 1), stride=(1, 1), bias=False)
              (bn): BatchNorm2d(16, eps=1e-05, momentum=0.1, affine=True, track_running_stats=True)
            )
            (se4): Sequential()
          )
          (5): IRFBlock(
            (pw): ConvBNRelu(
              (conv): Conv2d(32, 32, kernel_size=(1, 1), stride=(1, 1), groups=2, bias=False)
              (bn): BatchNorm2d(32, eps=1e-05, momentum=0.1, affine=True, track_running_stats=True)
              (relu): ReLU(inplace=True)
            )
            (dw): ConvBNRelu(
              (conv): Conv2d(32, 32, kernel_size=(5, 5), stride=(1, 1), padding=(2, 2), groups=32, bias=False)
              (bn): BatchNorm2d(32, eps=1e-05, momentum=0.1, affine=True, track_running_stats=True)
              (relu): ReLU(inplace=True)
            )
            (pwl): ConvBNRelu(
              (conv): Conv2d(32, 16, kernel_size=(1, 1), stride=(1, 1), groups=2, bias=False)
              (bn): BatchNorm2d(16, eps=1e-05, momentum=0.1, affine=True, track_running_stats=True)
            )
            (shuffle): ChannelShuffle()
            (se4): Sequential()
          )
          (6): IRFBlock(
            (pw): ConvBNRelu(
              (conv): Conv2d(32, 96, kernel_size=(1, 1), stride=(1, 1), bias=False)
              (bn): BatchNorm2d(96, eps=1e-05, momentum=0.1, affine=True, track_running_stats=True)
              (relu): ReLU(inplace=True)
            )
            (dw): ConvBNRelu(
              (conv): Conv2d(96, 96, kernel_size=(5, 5), stride=(1, 1), padding=(2, 2), groups=96, bias=False)
              (bn): BatchNorm2d(96, eps=1e-05, momentum=0.1, affine=True, track_running_stats=True)
              (relu): ReLU(inplace=True)
            )
            (pwl): ConvBNRelu(
              (conv): Conv2d(96, 16, kernel_size=(1, 1), stride=(1, 1), bias=False)
              (bn): BatchNorm2d(16, eps=1e-05, momentum=0.1, affine=True, track_running_stats=True)
            )
            (se4): Sequential()
          )
          (7): IRFBlock(
            (pw): ConvBNRelu(
              (conv): Conv2d(32, 192, kernel_size=(1, 1), stride=(1, 1), bias=False)
              (bn): BatchNorm2d(192, eps=1e-05, momentum=0.1, affine=True, track_running_stats=True)
              (relu): ReLU(inplace=True)
            )
            (dw): ConvBNRelu(
              (conv): Conv2d(192, 192, kernel_size=(5, 5), stride=(1, 1), padding=(2, 2), groups=192, bias=False)
              (bn): BatchNorm2d(192, eps=1e-05, momentum=0.1, affine=True, track_running_stats=True)
              (relu): ReLU(inplace=True)
            )
            (pwl): ConvBNRelu(
              (conv): Conv2d(192, 16, kernel_size=(1, 1), stride=(1, 1), bias=False)
              (bn): BatchNorm2d(16, eps=1e-05, momentum=0.1, affine=True, track_running_stats=True)
            )
            (se4): Sequential()
          )
          (8): Identity(
            (conv): ConvBNRelu(
              (conv): Conv2d(32, 16, kernel_size=(1, 1), stride=(1, 1), bias=False)
              (bn): BatchNorm2d(16, eps=1e-05, momentum=0.1, affine=True, track_running_stats=True)
              (relu): ReLU(inplace=True)
            )
          )
        )
      )
      (1): MixedOperation(
        (ops): ModuleList(
          (0): IRFBlock(
            (pw): ConvBNRelu(
              (conv): Conv2d(16, 16, kernel_size=(1, 1), stride=(1, 1), bias=False)
              (bn): BatchNorm2d(16, eps=1e-05, momentum=0.1, affine=True, track_running_stats=True)
              (relu): ReLU(inplace=True)
            )
            (dw): ConvBNRelu(
              (conv): Conv2d(16, 16, kernel_size=(3, 3), stride=(1, 1), padding=(1, 1), groups=16, bias=False)
              (bn): BatchNorm2d(16, eps=1e-05, momentum=0.1, affine=True, track_running_stats=True)
              (relu): ReLU(inplace=True)
            )
            (pwl): ConvBNRelu(
              (conv): Conv2d(16, 24, kernel_size=(1, 1), stride=(1, 1), bias=False)
              (bn): BatchNorm2d(24, eps=1e-05, momentum=0.1, affine=True, track_running_stats=True)
            )
            (se4): Sequential()
          )
          (1): IRFBlock(
            (pw): ConvBNRelu(
              (conv): Conv2d(16, 16, kernel_size=(1, 1), stride=(1, 1), groups=2, bias=False)
              (bn): BatchNorm2d(16, eps=1e-05, momentum=0.1, affine=True, track_running_stats=True)
              (relu): ReLU(inplace=True)
            )
            (dw): ConvBNRelu(
              (conv): Conv2d(16, 16, kernel_size=(3, 3), stride=(1, 1), padding=(1, 1), groups=16, bias=False)
              (bn): BatchNorm2d(16, eps=1e-05, momentum=0.1, affine=True, track_running_stats=True)
              (relu): ReLU(inplace=True)
            )
            (pwl): ConvBNRelu(
              (conv): Conv2d(16, 24, kernel_size=(1, 1), stride=(1, 1), groups=2, bias=False)
              (bn): BatchNorm2d(24, eps=1e-05, momentum=0.1, affine=True, track_running_stats=True)
            )
            (shuffle): ChannelShuffle()
            (se4): Sequential()
          )
          (2): IRFBlock(
            (pw): ConvBNRelu(
              (conv): Conv2d(16, 48, kernel_size=(1, 1), stride=(1, 1), bias=False)
              (bn): BatchNorm2d(48, eps=1e-05, momentum=0.1, affine=True, track_running_stats=True)
              (relu): ReLU(inplace=True)
            )
            (dw): ConvBNRelu(
              (conv): Conv2d(48, 48, kernel_size=(3, 3), stride=(1, 1), padding=(1, 1), groups=48, bias=False)
              (bn): BatchNorm2d(48, eps=1e-05, momentum=0.1, affine=True, track_running_stats=True)
              (relu): ReLU(inplace=True)
            )
            (pwl): ConvBNRelu(
              (conv): Conv2d(48, 24, kernel_size=(1, 1), stride=(1, 1), bias=False)
              (bn): BatchNorm2d(24, eps=1e-05, momentum=0.1, affine=True, track_running_stats=True)
            )
            (se4): Sequential()
          )
          (3): IRFBlock(
            (pw): ConvBNRelu(
              (conv): Conv2d(16, 96, kernel_size=(1, 1), stride=(1, 1), bias=False)
              (bn): BatchNorm2d(96, eps=1e-05, momentum=0.1, affine=True, track_running_stats=True)
              (relu): ReLU(inplace=True)
            )
            (dw): ConvBNRelu(
              (conv): Conv2d(96, 96, kernel_size=(3, 3), stride=(1, 1), padding=(1, 1), groups=96, bias=False)
              (bn): BatchNorm2d(96, eps=1e-05, momentum=0.1, affine=True, track_running_stats=True)
              (relu): ReLU(inplace=True)
            )
            (pwl): ConvBNRelu(
              (conv): Conv2d(96, 24, kernel_size=(1, 1), stride=(1, 1), bias=False)
              (bn): BatchNorm2d(24, eps=1e-05, momentum=0.1, affine=True, track_running_stats=True)
            )
            (se4): Sequential()
          )
          (4): IRFBlock(
            (pw): ConvBNRelu(
              (conv): Conv2d(16, 16, kernel_size=(1, 1), stride=(1, 1), bias=False)
              (bn): BatchNorm2d(16, eps=1e-05, momentum=0.1, affine=True, track_running_stats=True)
              (relu): ReLU(inplace=True)
            )
            (dw): ConvBNRelu(
              (conv): Conv2d(16, 16, kernel_size=(5, 5), stride=(1, 1), padding=(2, 2), groups=16, bias=False)
              (bn): BatchNorm2d(16, eps=1e-05, momentum=0.1, affine=True, track_running_stats=True)
              (relu): ReLU(inplace=True)
            )
            (pwl): ConvBNRelu(
              (conv): Conv2d(16, 24, kernel_size=(1, 1), stride=(1, 1), bias=False)
              (bn): BatchNorm2d(24, eps=1e-05, momentum=0.1, affine=True, track_running_stats=True)
            )
            (se4): Sequential()
          )
          (5): IRFBlock(
            (pw): ConvBNRelu(
              (conv): Conv2d(16, 16, kernel_size=(1, 1), stride=(1, 1), groups=2, bias=False)
              (bn): BatchNorm2d(16, eps=1e-05, momentum=0.1, affine=True, track_running_stats=True)
              (relu): ReLU(inplace=True)
            )
            (dw): ConvBNRelu(
              (conv): Conv2d(16, 16, kernel_size=(5, 5), stride=(1, 1), padding=(2, 2), groups=16, bias=False)
              (bn): BatchNorm2d(16, eps=1e-05, momentum=0.1, affine=True, track_running_stats=True)
              (relu): ReLU(inplace=True)
            )
            (pwl): ConvBNRelu(
              (conv): Conv2d(16, 24, kernel_size=(1, 1), stride=(1, 1), groups=2, bias=False)
              (bn): BatchNorm2d(24, eps=1e-05, momentum=0.1, affine=True, track_running_stats=True)
            )
            (shuffle): ChannelShuffle()
            (se4): Sequential()
          )
          (6): IRFBlock(
            (pw): ConvBNRelu(
              (conv): Conv2d(16, 48, kernel_size=(1, 1), stride=(1, 1), bias=False)
              (bn): BatchNorm2d(48, eps=1e-05, momentum=0.1, affine=True, track_running_stats=True)
              (relu): ReLU(inplace=True)
            )
            (dw): ConvBNRelu(
              (conv): Conv2d(48, 48, kernel_size=(5, 5), stride=(1, 1), padding=(2, 2), groups=48, bias=False)
              (bn): BatchNorm2d(48, eps=1e-05, momentum=0.1, affine=True, track_running_stats=True)
              (relu): ReLU(inplace=True)
            )
            (pwl): ConvBNRelu(
              (conv): Conv2d(48, 24, kernel_size=(1, 1), stride=(1, 1), bias=False)
              (bn): BatchNorm2d(24, eps=1e-05, momentum=0.1, affine=True, track_running_stats=True)
            )
            (se4): Sequential()
          )
          (7): IRFBlock(
            (pw): ConvBNRelu(
              (conv): Conv2d(16, 96, kernel_size=(1, 1), stride=(1, 1), bias=False)
              (bn): BatchNorm2d(96, eps=1e-05, momentum=0.1, affine=True, track_running_stats=True)
              (relu): ReLU(inplace=True)
            )
            (dw): ConvBNRelu(
              (conv): Conv2d(96, 96, kernel_size=(5, 5), stride=(1, 1), padding=(2, 2), groups=96, bias=False)
              (bn): BatchNorm2d(96, eps=1e-05, momentum=0.1, affine=True, track_running_stats=True)
              (relu): ReLU(inplace=True)
            )
            (pwl): ConvBNRelu(
              (conv): Conv2d(96, 24, kernel_size=(1, 1), stride=(1, 1), bias=False)
              (bn): BatchNorm2d(24, eps=1e-05, momentum=0.1, affine=True, track_running_stats=True)
            )
            (se4): Sequential()
          )
          (8): Identity(
            (conv): ConvBNRelu(
              (conv): Conv2d(16, 24, kernel_size=(1, 1), stride=(1, 1), bias=False)
              (bn): BatchNorm2d(24, eps=1e-05, momentum=0.1, affine=True, track_running_stats=True)
              (relu): ReLU(inplace=True)
            )
          )
        )
      )
      (2): MixedOperation(
        (ops): ModuleList(
          (0): IRFBlock(
            (pw): ConvBNRelu(
              (conv): Conv2d(24, 24, kernel_size=(1, 1), stride=(1, 1), bias=False)
              (bn): BatchNorm2d(24, eps=1e-05, momentum=0.1, affine=True, track_running_stats=True)
              (relu): ReLU(inplace=True)
            )
            (dw): ConvBNRelu(
              (conv): Conv2d(24, 24, kernel_size=(3, 3), stride=(1, 1), padding=(1, 1), groups=24, bias=False)
              (bn): BatchNorm2d(24, eps=1e-05, momentum=0.1, affine=True, track_running_stats=True)
              (relu): ReLU(inplace=True)
            )
            (pwl): ConvBNRelu(
              (conv): Conv2d(24, 24, kernel_size=(1, 1), stride=(1, 1), bias=False)
              (bn): BatchNorm2d(24, eps=1e-05, momentum=0.1, affine=True, track_running_stats=True)
            )
            (se4): Sequential()
          )
          (1): IRFBlock(
            (pw): ConvBNRelu(
              (conv): Conv2d(24, 24, kernel_size=(1, 1), stride=(1, 1), groups=2, bias=False)
              (bn): BatchNorm2d(24, eps=1e-05, momentum=0.1, affine=True, track_running_stats=True)
              (relu): ReLU(inplace=True)
            )
            (dw): ConvBNRelu(
              (conv): Conv2d(24, 24, kernel_size=(3, 3), stride=(1, 1), padding=(1, 1), groups=24, bias=False)
              (bn): BatchNorm2d(24, eps=1e-05, momentum=0.1, affine=True, track_running_stats=True)
              (relu): ReLU(inplace=True)
            )
            (pwl): ConvBNRelu(
              (conv): Conv2d(24, 24, kernel_size=(1, 1), stride=(1, 1), groups=2, bias=False)
              (bn): BatchNorm2d(24, eps=1e-05, momentum=0.1, affine=True, track_running_stats=True)
            )
            (shuffle): ChannelShuffle()
            (se4): Sequential()
          )
          (2): IRFBlock(
            (pw): ConvBNRelu(
              (conv): Conv2d(24, 72, kernel_size=(1, 1), stride=(1, 1), bias=False)
              (bn): BatchNorm2d(72, eps=1e-05, momentum=0.1, affine=True, track_running_stats=True)
              (relu): ReLU(inplace=True)
            )
            (dw): ConvBNRelu(
              (conv): Conv2d(72, 72, kernel_size=(3, 3), stride=(1, 1), padding=(1, 1), groups=72, bias=False)
              (bn): BatchNorm2d(72, eps=1e-05, momentum=0.1, affine=True, track_running_stats=True)
              (relu): ReLU(inplace=True)
            )
            (pwl): ConvBNRelu(
              (conv): Conv2d(72, 24, kernel_size=(1, 1), stride=(1, 1), bias=False)
              (bn): BatchNorm2d(24, eps=1e-05, momentum=0.1, affine=True, track_running_stats=True)
            )
            (se4): Sequential()
          )
          (3): IRFBlock(
            (pw): ConvBNRelu(
              (conv): Conv2d(24, 144, kernel_size=(1, 1), stride=(1, 1), bias=False)
              (bn): BatchNorm2d(144, eps=1e-05, momentum=0.1, affine=True, track_running_stats=True)
              (relu): ReLU(inplace=True)
            )
            (dw): ConvBNRelu(
              (conv): Conv2d(144, 144, kernel_size=(3, 3), stride=(1, 1), padding=(1, 1), groups=144, bias=False)
              (bn): BatchNorm2d(144, eps=1e-05, momentum=0.1, affine=True, track_running_stats=True)
              (relu): ReLU(inplace=True)
            )
            (pwl): ConvBNRelu(
              (conv): Conv2d(144, 24, kernel_size=(1, 1), stride=(1, 1), bias=False)
              (bn): BatchNorm2d(24, eps=1e-05, momentum=0.1, affine=True, track_running_stats=True)
            )
            (se4): Sequential()
          )
          (4): IRFBlock(
            (pw): ConvBNRelu(
              (conv): Conv2d(24, 24, kernel_size=(1, 1), stride=(1, 1), bias=False)
              (bn): BatchNorm2d(24, eps=1e-05, momentum=0.1, affine=True, track_running_stats=True)
              (relu): ReLU(inplace=True)
            )
            (dw): ConvBNRelu(
              (conv): Conv2d(24, 24, kernel_size=(5, 5), stride=(1, 1), padding=(2, 2), groups=24, bias=False)
              (bn): BatchNorm2d(24, eps=1e-05, momentum=0.1, affine=True, track_running_stats=True)
              (relu): ReLU(inplace=True)
            )
            (pwl): ConvBNRelu(
              (conv): Conv2d(24, 24, kernel_size=(1, 1), stride=(1, 1), bias=False)
              (bn): BatchNorm2d(24, eps=1e-05, momentum=0.1, affine=True, track_running_stats=True)
            )
            (se4): Sequential()
          )
          (5): IRFBlock(
            (pw): ConvBNRelu(
              (conv): Conv2d(24, 24, kernel_size=(1, 1), stride=(1, 1), groups=2, bias=False)
              (bn): BatchNorm2d(24, eps=1e-05, momentum=0.1, affine=True, track_running_stats=True)
              (relu): ReLU(inplace=True)
            )
            (dw): ConvBNRelu(
              (conv): Conv2d(24, 24, kernel_size=(5, 5), stride=(1, 1), padding=(2, 2), groups=24, bias=False)
              (bn): BatchNorm2d(24, eps=1e-05, momentum=0.1, affine=True, track_running_stats=True)
              (relu): ReLU(inplace=True)
            )
            (pwl): ConvBNRelu(
              (conv): Conv2d(24, 24, kernel_size=(1, 1), stride=(1, 1), groups=2, bias=False)
              (bn): BatchNorm2d(24, eps=1e-05, momentum=0.1, affine=True, track_running_stats=True)
            )
            (shuffle): ChannelShuffle()
            (se4): Sequential()
          )
          (6): IRFBlock(
            (pw): ConvBNRelu(
              (conv): Conv2d(24, 72, kernel_size=(1, 1), stride=(1, 1), bias=False)
              (bn): BatchNorm2d(72, eps=1e-05, momentum=0.1, affine=True, track_running_stats=True)
              (relu): ReLU(inplace=True)
            )
            (dw): ConvBNRelu(
              (conv): Conv2d(72, 72, kernel_size=(5, 5), stride=(1, 1), padding=(2, 2), groups=72, bias=False)
              (bn): BatchNorm2d(72, eps=1e-05, momentum=0.1, affine=True, track_running_stats=True)
              (relu): ReLU(inplace=True)
            )
            (pwl): ConvBNRelu(
              (conv): Conv2d(72, 24, kernel_size=(1, 1), stride=(1, 1), bias=False)
              (bn): BatchNorm2d(24, eps=1e-05, momentum=0.1, affine=True, track_running_stats=True)
            )
            (se4): Sequential()
          )
          (7): IRFBlock(
            (pw): ConvBNRelu(
              (conv): Conv2d(24, 144, kernel_size=(1, 1), stride=(1, 1), bias=False)
              (bn): BatchNorm2d(144, eps=1e-05, momentum=0.1, affine=True, track_running_stats=True)
              (relu): ReLU(inplace=True)
            )
            (dw): ConvBNRelu(
              (conv): Conv2d(144, 144, kernel_size=(5, 5), stride=(1, 1), padding=(2, 2), groups=144, bias=False)
              (bn): BatchNorm2d(144, eps=1e-05, momentum=0.1, affine=True, track_running_stats=True)
              (relu): ReLU(inplace=True)
            )
            (pwl): ConvBNRelu(
              (conv): Conv2d(144, 24, kernel_size=(1, 1), stride=(1, 1), bias=False)
              (bn): BatchNorm2d(24, eps=1e-05, momentum=0.1, affine=True, track_running_stats=True)
            )
            (se4): Sequential()
          )
          (8): Identity()
        )
      )
      (3): MixedOperation(
        (ops): ModuleList(
          (0): IRFBlock(
            (pw): ConvBNRelu(
              (conv): Conv2d(24, 24, kernel_size=(1, 1), stride=(1, 1), bias=False)
              (bn): BatchNorm2d(24, eps=1e-05, momentum=0.1, affine=True, track_running_stats=True)
              (relu): ReLU(inplace=True)
            )
            (dw): ConvBNRelu(
              (conv): Conv2d(24, 24, kernel_size=(3, 3), stride=(2, 2), padding=(1, 1), groups=24, bias=False)
              (bn): BatchNorm2d(24, eps=1e-05, momentum=0.1, affine=True, track_running_stats=True)
              (relu): ReLU(inplace=True)
            )
            (pwl): ConvBNRelu(
              (conv): Conv2d(24, 32, kernel_size=(1, 1), stride=(1, 1), bias=False)
              (bn): BatchNorm2d(32, eps=1e-05, momentum=0.1, affine=True, track_running_stats=True)
            )
            (se4): Sequential()
          )
          (1): IRFBlock(
            (pw): ConvBNRelu(
              (conv): Conv2d(24, 24, kernel_size=(1, 1), stride=(1, 1), groups=2, bias=False)
              (bn): BatchNorm2d(24, eps=1e-05, momentum=0.1, affine=True, track_running_stats=True)
              (relu): ReLU(inplace=True)
            )
            (dw): ConvBNRelu(
              (conv): Conv2d(24, 24, kernel_size=(3, 3), stride=(2, 2), padding=(1, 1), groups=24, bias=False)
              (bn): BatchNorm2d(24, eps=1e-05, momentum=0.1, affine=True, track_running_stats=True)
              (relu): ReLU(inplace=True)
            )
            (pwl): ConvBNRelu(
              (conv): Conv2d(24, 32, kernel_size=(1, 1), stride=(1, 1), groups=2, bias=False)
              (bn): BatchNorm2d(32, eps=1e-05, momentum=0.1, affine=True, track_running_stats=True)
            )
            (shuffle): ChannelShuffle()
            (se4): Sequential()
          )
          (2): IRFBlock(
            (pw): ConvBNRelu(
              (conv): Conv2d(24, 72, kernel_size=(1, 1), stride=(1, 1), bias=False)
              (bn): BatchNorm2d(72, eps=1e-05, momentum=0.1, affine=True, track_running_stats=True)
              (relu): ReLU(inplace=True)
            )
            (dw): ConvBNRelu(
              (conv): Conv2d(72, 72, kernel_size=(3, 3), stride=(2, 2), padding=(1, 1), groups=72, bias=False)
              (bn): BatchNorm2d(72, eps=1e-05, momentum=0.1, affine=True, track_running_stats=True)
              (relu): ReLU(inplace=True)
            )
            (pwl): ConvBNRelu(
              (conv): Conv2d(72, 32, kernel_size=(1, 1), stride=(1, 1), bias=False)
              (bn): BatchNorm2d(32, eps=1e-05, momentum=0.1, affine=True, track_running_stats=True)
            )
            (se4): Sequential()
          )
          (3): IRFBlock(
            (pw): ConvBNRelu(
              (conv): Conv2d(24, 144, kernel_size=(1, 1), stride=(1, 1), bias=False)
              (bn): BatchNorm2d(144, eps=1e-05, momentum=0.1, affine=True, track_running_stats=True)
              (relu): ReLU(inplace=True)
            )
            (dw): ConvBNRelu(
              (conv): Conv2d(144, 144, kernel_size=(3, 3), stride=(2, 2), padding=(1, 1), groups=144, bias=False)
              (bn): BatchNorm2d(144, eps=1e-05, momentum=0.1, affine=True, track_running_stats=True)
              (relu): ReLU(inplace=True)
            )
            (pwl): ConvBNRelu(
              (conv): Conv2d(144, 32, kernel_size=(1, 1), stride=(1, 1), bias=False)
              (bn): BatchNorm2d(32, eps=1e-05, momentum=0.1, affine=True, track_running_stats=True)
            )
            (se4): Sequential()
          )
          (4): IRFBlock(
            (pw): ConvBNRelu(
              (conv): Conv2d(24, 24, kernel_size=(1, 1), stride=(1, 1), bias=False)
              (bn): BatchNorm2d(24, eps=1e-05, momentum=0.1, affine=True, track_running_stats=True)
              (relu): ReLU(inplace=True)
            )
            (dw): ConvBNRelu(
              (conv): Conv2d(24, 24, kernel_size=(5, 5), stride=(2, 2), padding=(2, 2), groups=24, bias=False)
              (bn): BatchNorm2d(24, eps=1e-05, momentum=0.1, affine=True, track_running_stats=True)
              (relu): ReLU(inplace=True)
            )
            (pwl): ConvBNRelu(
              (conv): Conv2d(24, 32, kernel_size=(1, 1), stride=(1, 1), bias=False)
              (bn): BatchNorm2d(32, eps=1e-05, momentum=0.1, affine=True, track_running_stats=True)
            )
            (se4): Sequential()
          )
          (5): IRFBlock(
            (pw): ConvBNRelu(
              (conv): Conv2d(24, 24, kernel_size=(1, 1), stride=(1, 1), groups=2, bias=False)
              (bn): BatchNorm2d(24, eps=1e-05, momentum=0.1, affine=True, track_running_stats=True)
              (relu): ReLU(inplace=True)
            )
            (dw): ConvBNRelu(
              (conv): Conv2d(24, 24, kernel_size=(5, 5), stride=(2, 2), padding=(2, 2), groups=24, bias=False)
              (bn): BatchNorm2d(24, eps=1e-05, momentum=0.1, affine=True, track_running_stats=True)
              (relu): ReLU(inplace=True)
            )
            (pwl): ConvBNRelu(
              (conv): Conv2d(24, 32, kernel_size=(1, 1), stride=(1, 1), groups=2, bias=False)
              (bn): BatchNorm2d(32, eps=1e-05, momentum=0.1, affine=True, track_running_stats=True)
            )
            (shuffle): ChannelShuffle()
            (se4): Sequential()
          )
          (6): IRFBlock(
            (pw): ConvBNRelu(
              (conv): Conv2d(24, 72, kernel_size=(1, 1), stride=(1, 1), bias=False)
              (bn): BatchNorm2d(72, eps=1e-05, momentum=0.1, affine=True, track_running_stats=True)
              (relu): ReLU(inplace=True)
            )
            (dw): ConvBNRelu(
              (conv): Conv2d(72, 72, kernel_size=(5, 5), stride=(2, 2), padding=(2, 2), groups=72, bias=False)
              (bn): BatchNorm2d(72, eps=1e-05, momentum=0.1, affine=True, track_running_stats=True)
              (relu): ReLU(inplace=True)
            )
            (pwl): ConvBNRelu(
              (conv): Conv2d(72, 32, kernel_size=(1, 1), stride=(1, 1), bias=False)
              (bn): BatchNorm2d(32, eps=1e-05, momentum=0.1, affine=True, track_running_stats=True)
            )
            (se4): Sequential()
          )
          (7): IRFBlock(
            (pw): ConvBNRelu(
              (conv): Conv2d(24, 144, kernel_size=(1, 1), stride=(1, 1), bias=False)
              (bn): BatchNorm2d(144, eps=1e-05, momentum=0.1, affine=True, track_running_stats=True)
              (relu): ReLU(inplace=True)
            )
            (dw): ConvBNRelu(
              (conv): Conv2d(144, 144, kernel_size=(5, 5), stride=(2, 2), padding=(2, 2), groups=144, bias=False)
              (bn): BatchNorm2d(144, eps=1e-05, momentum=0.1, affine=True, track_running_stats=True)
              (relu): ReLU(inplace=True)
            )
            (pwl): ConvBNRelu(
              (conv): Conv2d(144, 32, kernel_size=(1, 1), stride=(1, 1), bias=False)
              (bn): BatchNorm2d(32, eps=1e-05, momentum=0.1, affine=True, track_running_stats=True)
            )
            (se4): Sequential()
          )
          (8): Identity(
            (conv): ConvBNRelu(
              (conv): Conv2d(24, 32, kernel_size=(1, 1), stride=(2, 2), bias=False)
              (bn): BatchNorm2d(32, eps=1e-05, momentum=0.1, affine=True, track_running_stats=True)
              (relu): ReLU(inplace=True)
            )
          )
        )
      )
      (4): MixedOperation(
        (ops): ModuleList(
          (0): IRFBlock(
            (pw): ConvBNRelu(
              (conv): Conv2d(32, 32, kernel_size=(1, 1), stride=(1, 1), bias=False)
              (bn): BatchNorm2d(32, eps=1e-05, momentum=0.1, affine=True, track_running_stats=True)
              (relu): ReLU(inplace=True)
            )
            (dw): ConvBNRelu(
              (conv): Conv2d(32, 32, kernel_size=(3, 3), stride=(1, 1), padding=(1, 1), groups=32, bias=False)
              (bn): BatchNorm2d(32, eps=1e-05, momentum=0.1, affine=True, track_running_stats=True)
              (relu): ReLU(inplace=True)
            )
            (pwl): ConvBNRelu(
              (conv): Conv2d(32, 32, kernel_size=(1, 1), stride=(1, 1), bias=False)
              (bn): BatchNorm2d(32, eps=1e-05, momentum=0.1, affine=True, track_running_stats=True)
            )
            (se4): Sequential()
          )
          (1): IRFBlock(
            (pw): ConvBNRelu(
              (conv): Conv2d(32, 32, kernel_size=(1, 1), stride=(1, 1), groups=2, bias=False)
              (bn): BatchNorm2d(32, eps=1e-05, momentum=0.1, affine=True, track_running_stats=True)
              (relu): ReLU(inplace=True)
            )
            (dw): ConvBNRelu(
              (conv): Conv2d(32, 32, kernel_size=(3, 3), stride=(1, 1), padding=(1, 1), groups=32, bias=False)
              (bn): BatchNorm2d(32, eps=1e-05, momentum=0.1, affine=True, track_running_stats=True)
              (relu): ReLU(inplace=True)
            )
            (pwl): ConvBNRelu(
              (conv): Conv2d(32, 32, kernel_size=(1, 1), stride=(1, 1), groups=2, bias=False)
              (bn): BatchNorm2d(32, eps=1e-05, momentum=0.1, affine=True, track_running_stats=True)
            )
            (shuffle): ChannelShuffle()
            (se4): Sequential()
          )
          (2): IRFBlock(
            (pw): ConvBNRelu(
              (conv): Conv2d(32, 96, kernel_size=(1, 1), stride=(1, 1), bias=False)
              (bn): BatchNorm2d(96, eps=1e-05, momentum=0.1, affine=True, track_running_stats=True)
              (relu): ReLU(inplace=True)
            )
            (dw): ConvBNRelu(
              (conv): Conv2d(96, 96, kernel_size=(3, 3), stride=(1, 1), padding=(1, 1), groups=96, bias=False)
              (bn): BatchNorm2d(96, eps=1e-05, momentum=0.1, affine=True, track_running_stats=True)
              (relu): ReLU(inplace=True)
            )
            (pwl): ConvBNRelu(
              (conv): Conv2d(96, 32, kernel_size=(1, 1), stride=(1, 1), bias=False)
              (bn): BatchNorm2d(32, eps=1e-05, momentum=0.1, affine=True, track_running_stats=True)
            )
            (se4): Sequential()
          )
          (3): IRFBlock(
            (pw): ConvBNRelu(
              (conv): Conv2d(32, 192, kernel_size=(1, 1), stride=(1, 1), bias=False)
              (bn): BatchNorm2d(192, eps=1e-05, momentum=0.1, affine=True, track_running_stats=True)
              (relu): ReLU(inplace=True)
            )
            (dw): ConvBNRelu(
              (conv): Conv2d(192, 192, kernel_size=(3, 3), stride=(1, 1), padding=(1, 1), groups=192, bias=False)
              (bn): BatchNorm2d(192, eps=1e-05, momentum=0.1, affine=True, track_running_stats=True)
              (relu): ReLU(inplace=True)
            )
            (pwl): ConvBNRelu(
              (conv): Conv2d(192, 32, kernel_size=(1, 1), stride=(1, 1), bias=False)
              (bn): BatchNorm2d(32, eps=1e-05, momentum=0.1, affine=True, track_running_stats=True)
            )
            (se4): Sequential()
          )
          (4): IRFBlock(
            (pw): ConvBNRelu(
              (conv): Conv2d(32, 32, kernel_size=(1, 1), stride=(1, 1), bias=False)
              (bn): BatchNorm2d(32, eps=1e-05, momentum=0.1, affine=True, track_running_stats=True)
              (relu): ReLU(inplace=True)
            )
            (dw): ConvBNRelu(
              (conv): Conv2d(32, 32, kernel_size=(5, 5), stride=(1, 1), padding=(2, 2), groups=32, bias=False)
              (bn): BatchNorm2d(32, eps=1e-05, momentum=0.1, affine=True, track_running_stats=True)
              (relu): ReLU(inplace=True)
            )
            (pwl): ConvBNRelu(
              (conv): Conv2d(32, 32, kernel_size=(1, 1), stride=(1, 1), bias=False)
              (bn): BatchNorm2d(32, eps=1e-05, momentum=0.1, affine=True, track_running_stats=True)
            )
            (se4): Sequential()
          )
          (5): IRFBlock(
            (pw): ConvBNRelu(
              (conv): Conv2d(32, 32, kernel_size=(1, 1), stride=(1, 1), groups=2, bias=False)
              (bn): BatchNorm2d(32, eps=1e-05, momentum=0.1, affine=True, track_running_stats=True)
              (relu): ReLU(inplace=True)
            )
            (dw): ConvBNRelu(
              (conv): Conv2d(32, 32, kernel_size=(5, 5), stride=(1, 1), padding=(2, 2), groups=32, bias=False)
              (bn): BatchNorm2d(32, eps=1e-05, momentum=0.1, affine=True, track_running_stats=True)
              (relu): ReLU(inplace=True)
            )
            (pwl): ConvBNRelu(
              (conv): Conv2d(32, 32, kernel_size=(1, 1), stride=(1, 1), groups=2, bias=False)
              (bn): BatchNorm2d(32, eps=1e-05, momentum=0.1, affine=True, track_running_stats=True)
            )
            (shuffle): ChannelShuffle()
            (se4): Sequential()
          )
          (6): IRFBlock(
            (pw): ConvBNRelu(
              (conv): Conv2d(32, 96, kernel_size=(1, 1), stride=(1, 1), bias=False)
              (bn): BatchNorm2d(96, eps=1e-05, momentum=0.1, affine=True, track_running_stats=True)
              (relu): ReLU(inplace=True)
            )
            (dw): ConvBNRelu(
              (conv): Conv2d(96, 96, kernel_size=(5, 5), stride=(1, 1), padding=(2, 2), groups=96, bias=False)
              (bn): BatchNorm2d(96, eps=1e-05, momentum=0.1, affine=True, track_running_stats=True)
              (relu): ReLU(inplace=True)
            )
            (pwl): ConvBNRelu(
              (conv): Conv2d(96, 32, kernel_size=(1, 1), stride=(1, 1), bias=False)
              (bn): BatchNorm2d(32, eps=1e-05, momentum=0.1, affine=True, track_running_stats=True)
            )
            (se4): Sequential()
          )
          (7): IRFBlock(
            (pw): ConvBNRelu(
              (conv): Conv2d(32, 192, kernel_size=(1, 1), stride=(1, 1), bias=False)
              (bn): BatchNorm2d(192, eps=1e-05, momentum=0.1, affine=True, track_running_stats=True)
              (relu): ReLU(inplace=True)
            )
            (dw): ConvBNRelu(
              (conv): Conv2d(192, 192, kernel_size=(5, 5), stride=(1, 1), padding=(2, 2), groups=192, bias=False)
              (bn): BatchNorm2d(192, eps=1e-05, momentum=0.1, affine=True, track_running_stats=True)
              (relu): ReLU(inplace=True)
            )
            (pwl): ConvBNRelu(
              (conv): Conv2d(192, 32, kernel_size=(1, 1), stride=(1, 1), bias=False)
              (bn): BatchNorm2d(32, eps=1e-05, momentum=0.1, affine=True, track_running_stats=True)
            )
            (se4): Sequential()
          )
          (8): Identity()
        )
      )
      (5): MixedOperation(
        (ops): ModuleList(
          (0): IRFBlock(
            (pw): ConvBNRelu(
              (conv): Conv2d(32, 32, kernel_size=(1, 1), stride=(1, 1), bias=False)
              (bn): BatchNorm2d(32, eps=1e-05, momentum=0.1, affine=True, track_running_stats=True)
              (relu): ReLU(inplace=True)
            )
            (dw): ConvBNRelu(
              (conv): Conv2d(32, 32, kernel_size=(3, 3), stride=(1, 1), padding=(1, 1), groups=32, bias=False)
              (bn): BatchNorm2d(32, eps=1e-05, momentum=0.1, affine=True, track_running_stats=True)
              (relu): ReLU(inplace=True)
            )
            (pwl): ConvBNRelu(
              (conv): Conv2d(32, 32, kernel_size=(1, 1), stride=(1, 1), bias=False)
              (bn): BatchNorm2d(32, eps=1e-05, momentum=0.1, affine=True, track_running_stats=True)
            )
            (se4): Sequential()
          )
          (1): IRFBlock(
            (pw): ConvBNRelu(
              (conv): Conv2d(32, 32, kernel_size=(1, 1), stride=(1, 1), groups=2, bias=False)
              (bn): BatchNorm2d(32, eps=1e-05, momentum=0.1, affine=True, track_running_stats=True)
              (relu): ReLU(inplace=True)
            )
            (dw): ConvBNRelu(
              (conv): Conv2d(32, 32, kernel_size=(3, 3), stride=(1, 1), padding=(1, 1), groups=32, bias=False)
              (bn): BatchNorm2d(32, eps=1e-05, momentum=0.1, affine=True, track_running_stats=True)
              (relu): ReLU(inplace=True)
            )
            (pwl): ConvBNRelu(
              (conv): Conv2d(32, 32, kernel_size=(1, 1), stride=(1, 1), groups=2, bias=False)
              (bn): BatchNorm2d(32, eps=1e-05, momentum=0.1, affine=True, track_running_stats=True)
            )
            (shuffle): ChannelShuffle()
            (se4): Sequential()
          )
          (2): IRFBlock(
            (pw): ConvBNRelu(
              (conv): Conv2d(32, 96, kernel_size=(1, 1), stride=(1, 1), bias=False)
              (bn): BatchNorm2d(96, eps=1e-05, momentum=0.1, affine=True, track_running_stats=True)
              (relu): ReLU(inplace=True)
            )
            (dw): ConvBNRelu(
              (conv): Conv2d(96, 96, kernel_size=(3, 3), stride=(1, 1), padding=(1, 1), groups=96, bias=False)
              (bn): BatchNorm2d(96, eps=1e-05, momentum=0.1, affine=True, track_running_stats=True)
              (relu): ReLU(inplace=True)
            )
            (pwl): ConvBNRelu(
              (conv): Conv2d(96, 32, kernel_size=(1, 1), stride=(1, 1), bias=False)
              (bn): BatchNorm2d(32, eps=1e-05, momentum=0.1, affine=True, track_running_stats=True)
            )
            (se4): Sequential()
          )
          (3): IRFBlock(
            (pw): ConvBNRelu(
              (conv): Conv2d(32, 192, kernel_size=(1, 1), stride=(1, 1), bias=False)
              (bn): BatchNorm2d(192, eps=1e-05, momentum=0.1, affine=True, track_running_stats=True)
              (relu): ReLU(inplace=True)
            )
            (dw): ConvBNRelu(
              (conv): Conv2d(192, 192, kernel_size=(3, 3), stride=(1, 1), padding=(1, 1), groups=192, bias=False)
              (bn): BatchNorm2d(192, eps=1e-05, momentum=0.1, affine=True, track_running_stats=True)
              (relu): ReLU(inplace=True)
            )
            (pwl): ConvBNRelu(
              (conv): Conv2d(192, 32, kernel_size=(1, 1), stride=(1, 1), bias=False)
              (bn): BatchNorm2d(32, eps=1e-05, momentum=0.1, affine=True, track_running_stats=True)
            )
            (se4): Sequential()
          )
          (4): IRFBlock(
            (pw): ConvBNRelu(
              (conv): Conv2d(32, 32, kernel_size=(1, 1), stride=(1, 1), bias=False)
              (bn): BatchNorm2d(32, eps=1e-05, momentum=0.1, affine=True, track_running_stats=True)
              (relu): ReLU(inplace=True)
            )
            (dw): ConvBNRelu(
              (conv): Conv2d(32, 32, kernel_size=(5, 5), stride=(1, 1), padding=(2, 2), groups=32, bias=False)
              (bn): BatchNorm2d(32, eps=1e-05, momentum=0.1, affine=True, track_running_stats=True)
              (relu): ReLU(inplace=True)
            )
            (pwl): ConvBNRelu(
              (conv): Conv2d(32, 32, kernel_size=(1, 1), stride=(1, 1), bias=False)
              (bn): BatchNorm2d(32, eps=1e-05, momentum=0.1, affine=True, track_running_stats=True)
            )
            (se4): Sequential()
          )
          (5): IRFBlock(
            (pw): ConvBNRelu(
              (conv): Conv2d(32, 32, kernel_size=(1, 1), stride=(1, 1), groups=2, bias=False)
              (bn): BatchNorm2d(32, eps=1e-05, momentum=0.1, affine=True, track_running_stats=True)
              (relu): ReLU(inplace=True)
            )
            (dw): ConvBNRelu(
              (conv): Conv2d(32, 32, kernel_size=(5, 5), stride=(1, 1), padding=(2, 2), groups=32, bias=False)
              (bn): BatchNorm2d(32, eps=1e-05, momentum=0.1, affine=True, track_running_stats=True)
              (relu): ReLU(inplace=True)
            )
            (pwl): ConvBNRelu(
              (conv): Conv2d(32, 32, kernel_size=(1, 1), stride=(1, 1), groups=2, bias=False)
              (bn): BatchNorm2d(32, eps=1e-05, momentum=0.1, affine=True, track_running_stats=True)
            )
            (shuffle): ChannelShuffle()
            (se4): Sequential()
          )
          (6): IRFBlock(
            (pw): ConvBNRelu(
              (conv): Conv2d(32, 96, kernel_size=(1, 1), stride=(1, 1), bias=False)
              (bn): BatchNorm2d(96, eps=1e-05, momentum=0.1, affine=True, track_running_stats=True)
              (relu): ReLU(inplace=True)
            )
            (dw): ConvBNRelu(
              (conv): Conv2d(96, 96, kernel_size=(5, 5), stride=(1, 1), padding=(2, 2), groups=96, bias=False)
              (bn): BatchNorm2d(96, eps=1e-05, momentum=0.1, affine=True, track_running_stats=True)
              (relu): ReLU(inplace=True)
            )
            (pwl): ConvBNRelu(
              (conv): Conv2d(96, 32, kernel_size=(1, 1), stride=(1, 1), bias=False)
              (bn): BatchNorm2d(32, eps=1e-05, momentum=0.1, affine=True, track_running_stats=True)
            )
            (se4): Sequential()
          )
          (7): IRFBlock(
            (pw): ConvBNRelu(
              (conv): Conv2d(32, 192, kernel_size=(1, 1), stride=(1, 1), bias=False)
              (bn): BatchNorm2d(192, eps=1e-05, momentum=0.1, affine=True, track_running_stats=True)
              (relu): ReLU(inplace=True)
            )
            (dw): ConvBNRelu(
              (conv): Conv2d(192, 192, kernel_size=(5, 5), stride=(1, 1), padding=(2, 2), groups=192, bias=False)
              (bn): BatchNorm2d(192, eps=1e-05, momentum=0.1, affine=True, track_running_stats=True)
              (relu): ReLU(inplace=True)
            )
            (pwl): ConvBNRelu(
              (conv): Conv2d(192, 32, kernel_size=(1, 1), stride=(1, 1), bias=False)
              (bn): BatchNorm2d(32, eps=1e-05, momentum=0.1, affine=True, track_running_stats=True)
            )
            (se4): Sequential()
          )
          (8): Identity()
        )
      )
      (6): MixedOperation(
        (ops): ModuleList(
          (0): IRFBlock(
            (pw): ConvBNRelu(
              (conv): Conv2d(32, 32, kernel_size=(1, 1), stride=(1, 1), bias=False)
              (bn): BatchNorm2d(32, eps=1e-05, momentum=0.1, affine=True, track_running_stats=True)
              (relu): ReLU(inplace=True)
            )
            (dw): ConvBNRelu(
              (conv): Conv2d(32, 32, kernel_size=(3, 3), stride=(2, 2), padding=(1, 1), groups=32, bias=False)
              (bn): BatchNorm2d(32, eps=1e-05, momentum=0.1, affine=True, track_running_stats=True)
              (relu): ReLU(inplace=True)
            )
            (pwl): ConvBNRelu(
              (conv): Conv2d(32, 64, kernel_size=(1, 1), stride=(1, 1), bias=False)
              (bn): BatchNorm2d(64, eps=1e-05, momentum=0.1, affine=True, track_running_stats=True)
            )
            (se4): Sequential()
          )
          (1): IRFBlock(
            (pw): ConvBNRelu(
              (conv): Conv2d(32, 32, kernel_size=(1, 1), stride=(1, 1), groups=2, bias=False)
              (bn): BatchNorm2d(32, eps=1e-05, momentum=0.1, affine=True, track_running_stats=True)
              (relu): ReLU(inplace=True)
            )
            (dw): ConvBNRelu(
              (conv): Conv2d(32, 32, kernel_size=(3, 3), stride=(2, 2), padding=(1, 1), groups=32, bias=False)
              (bn): BatchNorm2d(32, eps=1e-05, momentum=0.1, affine=True, track_running_stats=True)
              (relu): ReLU(inplace=True)
            )
            (pwl): ConvBNRelu(
              (conv): Conv2d(32, 64, kernel_size=(1, 1), stride=(1, 1), groups=2, bias=False)
              (bn): BatchNorm2d(64, eps=1e-05, momentum=0.1, affine=True, track_running_stats=True)
            )
            (shuffle): ChannelShuffle()
            (se4): Sequential()
          )
          (2): IRFBlock(
            (pw): ConvBNRelu(
              (conv): Conv2d(32, 96, kernel_size=(1, 1), stride=(1, 1), bias=False)
              (bn): BatchNorm2d(96, eps=1e-05, momentum=0.1, affine=True, track_running_stats=True)
              (relu): ReLU(inplace=True)
            )
            (dw): ConvBNRelu(
              (conv): Conv2d(96, 96, kernel_size=(3, 3), stride=(2, 2), padding=(1, 1), groups=96, bias=False)
              (bn): BatchNorm2d(96, eps=1e-05, momentum=0.1, affine=True, track_running_stats=True)
              (relu): ReLU(inplace=True)
            )
            (pwl): ConvBNRelu(
              (conv): Conv2d(96, 64, kernel_size=(1, 1), stride=(1, 1), bias=False)
              (bn): BatchNorm2d(64, eps=1e-05, momentum=0.1, affine=True, track_running_stats=True)
            )
            (se4): Sequential()
          )
          (3): IRFBlock(
            (pw): ConvBNRelu(
              (conv): Conv2d(32, 192, kernel_size=(1, 1), stride=(1, 1), bias=False)
              (bn): BatchNorm2d(192, eps=1e-05, momentum=0.1, affine=True, track_running_stats=True)
              (relu): ReLU(inplace=True)
            )
            (dw): ConvBNRelu(
              (conv): Conv2d(192, 192, kernel_size=(3, 3), stride=(2, 2), padding=(1, 1), groups=192, bias=False)
              (bn): BatchNorm2d(192, eps=1e-05, momentum=0.1, affine=True, track_running_stats=True)
              (relu): ReLU(inplace=True)
            )
            (pwl): ConvBNRelu(
              (conv): Conv2d(192, 64, kernel_size=(1, 1), stride=(1, 1), bias=False)
              (bn): BatchNorm2d(64, eps=1e-05, momentum=0.1, affine=True, track_running_stats=True)
            )
            (se4): Sequential()
          )
          (4): IRFBlock(
            (pw): ConvBNRelu(
              (conv): Conv2d(32, 32, kernel_size=(1, 1), stride=(1, 1), bias=False)
              (bn): BatchNorm2d(32, eps=1e-05, momentum=0.1, affine=True, track_running_stats=True)
              (relu): ReLU(inplace=True)
            )
            (dw): ConvBNRelu(
              (conv): Conv2d(32, 32, kernel_size=(5, 5), stride=(2, 2), padding=(2, 2), groups=32, bias=False)
              (bn): BatchNorm2d(32, eps=1e-05, momentum=0.1, affine=True, track_running_stats=True)
              (relu): ReLU(inplace=True)
            )
            (pwl): ConvBNRelu(
              (conv): Conv2d(32, 64, kernel_size=(1, 1), stride=(1, 1), bias=False)
              (bn): BatchNorm2d(64, eps=1e-05, momentum=0.1, affine=True, track_running_stats=True)
            )
            (se4): Sequential()
          )
          (5): IRFBlock(
            (pw): ConvBNRelu(
              (conv): Conv2d(32, 32, kernel_size=(1, 1), stride=(1, 1), groups=2, bias=False)
              (bn): BatchNorm2d(32, eps=1e-05, momentum=0.1, affine=True, track_running_stats=True)
              (relu): ReLU(inplace=True)
            )
            (dw): ConvBNRelu(
              (conv): Conv2d(32, 32, kernel_size=(5, 5), stride=(2, 2), padding=(2, 2), groups=32, bias=False)
              (bn): BatchNorm2d(32, eps=1e-05, momentum=0.1, affine=True, track_running_stats=True)
              (relu): ReLU(inplace=True)
            )
            (pwl): ConvBNRelu(
              (conv): Conv2d(32, 64, kernel_size=(1, 1), stride=(1, 1), groups=2, bias=False)
              (bn): BatchNorm2d(64, eps=1e-05, momentum=0.1, affine=True, track_running_stats=True)
            )
            (shuffle): ChannelShuffle()
            (se4): Sequential()
          )
          (6): IRFBlock(
            (pw): ConvBNRelu(
              (conv): Conv2d(32, 96, kernel_size=(1, 1), stride=(1, 1), bias=False)
              (bn): BatchNorm2d(96, eps=1e-05, momentum=0.1, affine=True, track_running_stats=True)
              (relu): ReLU(inplace=True)
            )
            (dw): ConvBNRelu(
              (conv): Conv2d(96, 96, kernel_size=(5, 5), stride=(2, 2), padding=(2, 2), groups=96, bias=False)
              (bn): BatchNorm2d(96, eps=1e-05, momentum=0.1, affine=True, track_running_stats=True)
              (relu): ReLU(inplace=True)
            )
            (pwl): ConvBNRelu(
              (conv): Conv2d(96, 64, kernel_size=(1, 1), stride=(1, 1), bias=False)
              (bn): BatchNorm2d(64, eps=1e-05, momentum=0.1, affine=True, track_running_stats=True)
            )
            (se4): Sequential()
          )
          (7): IRFBlock(
            (pw): ConvBNRelu(
              (conv): Conv2d(32, 192, kernel_size=(1, 1), stride=(1, 1), bias=False)
              (bn): BatchNorm2d(192, eps=1e-05, momentum=0.1, affine=True, track_running_stats=True)
              (relu): ReLU(inplace=True)
            )
            (dw): ConvBNRelu(
              (conv): Conv2d(192, 192, kernel_size=(5, 5), stride=(2, 2), padding=(2, 2), groups=192, bias=False)
              (bn): BatchNorm2d(192, eps=1e-05, momentum=0.1, affine=True, track_running_stats=True)
              (relu): ReLU(inplace=True)
            )
            (pwl): ConvBNRelu(
              (conv): Conv2d(192, 64, kernel_size=(1, 1), stride=(1, 1), bias=False)
              (bn): BatchNorm2d(64, eps=1e-05, momentum=0.1, affine=True, track_running_stats=True)
            )
            (se4): Sequential()
          )
          (8): Identity(
            (conv): ConvBNRelu(
              (conv): Conv2d(32, 64, kernel_size=(1, 1), stride=(2, 2), bias=False)
              (bn): BatchNorm2d(64, eps=1e-05, momentum=0.1, affine=True, track_running_stats=True)
              (relu): ReLU(inplace=True)
            )
          )
        )
      )
      (7): MixedOperation(
        (ops): ModuleList(
          (0): IRFBlock(
            (pw): ConvBNRelu(
              (conv): Conv2d(64, 64, kernel_size=(1, 1), stride=(1, 1), bias=False)
              (bn): BatchNorm2d(64, eps=1e-05, momentum=0.1, affine=True, track_running_stats=True)
              (relu): ReLU(inplace=True)
            )
            (dw): ConvBNRelu(
              (conv): Conv2d(64, 64, kernel_size=(3, 3), stride=(1, 1), padding=(1, 1), groups=64, bias=False)
              (bn): BatchNorm2d(64, eps=1e-05, momentum=0.1, affine=True, track_running_stats=True)
              (relu): ReLU(inplace=True)
            )
            (pwl): ConvBNRelu(
              (conv): Conv2d(64, 64, kernel_size=(1, 1), stride=(1, 1), bias=False)
              (bn): BatchNorm2d(64, eps=1e-05, momentum=0.1, affine=True, track_running_stats=True)
            )
            (se4): Sequential()
          )
          (1): IRFBlock(
            (pw): ConvBNRelu(
              (conv): Conv2d(64, 64, kernel_size=(1, 1), stride=(1, 1), groups=2, bias=False)
              (bn): BatchNorm2d(64, eps=1e-05, momentum=0.1, affine=True, track_running_stats=True)
              (relu): ReLU(inplace=True)
            )
            (dw): ConvBNRelu(
              (conv): Conv2d(64, 64, kernel_size=(3, 3), stride=(1, 1), padding=(1, 1), groups=64, bias=False)
              (bn): BatchNorm2d(64, eps=1e-05, momentum=0.1, affine=True, track_running_stats=True)
              (relu): ReLU(inplace=True)
            )
            (pwl): ConvBNRelu(
              (conv): Conv2d(64, 64, kernel_size=(1, 1), stride=(1, 1), groups=2, bias=False)
              (bn): BatchNorm2d(64, eps=1e-05, momentum=0.1, affine=True, track_running_stats=True)
            )
            (shuffle): ChannelShuffle()
            (se4): Sequential()
          )
          (2): IRFBlock(
            (pw): ConvBNRelu(
              (conv): Conv2d(64, 192, kernel_size=(1, 1), stride=(1, 1), bias=False)
              (bn): BatchNorm2d(192, eps=1e-05, momentum=0.1, affine=True, track_running_stats=True)
              (relu): ReLU(inplace=True)
            )
            (dw): ConvBNRelu(
              (conv): Conv2d(192, 192, kernel_size=(3, 3), stride=(1, 1), padding=(1, 1), groups=192, bias=False)
              (bn): BatchNorm2d(192, eps=1e-05, momentum=0.1, affine=True, track_running_stats=True)
              (relu): ReLU(inplace=True)
            )
            (pwl): ConvBNRelu(
              (conv): Conv2d(192, 64, kernel_size=(1, 1), stride=(1, 1), bias=False)
              (bn): BatchNorm2d(64, eps=1e-05, momentum=0.1, affine=True, track_running_stats=True)
            )
            (se4): Sequential()
          )
          (3): IRFBlock(
            (pw): ConvBNRelu(
              (conv): Conv2d(64, 384, kernel_size=(1, 1), stride=(1, 1), bias=False)
              (bn): BatchNorm2d(384, eps=1e-05, momentum=0.1, affine=True, track_running_stats=True)
              (relu): ReLU(inplace=True)
            )
            (dw): ConvBNRelu(
              (conv): Conv2d(384, 384, kernel_size=(3, 3), stride=(1, 1), padding=(1, 1), groups=384, bias=False)
              (bn): BatchNorm2d(384, eps=1e-05, momentum=0.1, affine=True, track_running_stats=True)
              (relu): ReLU(inplace=True)
            )
            (pwl): ConvBNRelu(
              (conv): Conv2d(384, 64, kernel_size=(1, 1), stride=(1, 1), bias=False)
              (bn): BatchNorm2d(64, eps=1e-05, momentum=0.1, affine=True, track_running_stats=True)
            )
            (se4): Sequential()
          )
          (4): IRFBlock(
            (pw): ConvBNRelu(
              (conv): Conv2d(64, 64, kernel_size=(1, 1), stride=(1, 1), bias=False)
              (bn): BatchNorm2d(64, eps=1e-05, momentum=0.1, affine=True, track_running_stats=True)
              (relu): ReLU(inplace=True)
            )
            (dw): ConvBNRelu(
              (conv): Conv2d(64, 64, kernel_size=(5, 5), stride=(1, 1), padding=(2, 2), groups=64, bias=False)
              (bn): BatchNorm2d(64, eps=1e-05, momentum=0.1, affine=True, track_running_stats=True)
              (relu): ReLU(inplace=True)
            )
            (pwl): ConvBNRelu(
              (conv): Conv2d(64, 64, kernel_size=(1, 1), stride=(1, 1), bias=False)
              (bn): BatchNorm2d(64, eps=1e-05, momentum=0.1, affine=True, track_running_stats=True)
            )
            (se4): Sequential()
          )
          (5): IRFBlock(
            (pw): ConvBNRelu(
              (conv): Conv2d(64, 64, kernel_size=(1, 1), stride=(1, 1), groups=2, bias=False)
              (bn): BatchNorm2d(64, eps=1e-05, momentum=0.1, affine=True, track_running_stats=True)
              (relu): ReLU(inplace=True)
            )
            (dw): ConvBNRelu(
              (conv): Conv2d(64, 64, kernel_size=(5, 5), stride=(1, 1), padding=(2, 2), groups=64, bias=False)
              (bn): BatchNorm2d(64, eps=1e-05, momentum=0.1, affine=True, track_running_stats=True)
              (relu): ReLU(inplace=True)
            )
            (pwl): ConvBNRelu(
              (conv): Conv2d(64, 64, kernel_size=(1, 1), stride=(1, 1), groups=2, bias=False)
              (bn): BatchNorm2d(64, eps=1e-05, momentum=0.1, affine=True, track_running_stats=True)
            )
            (shuffle): ChannelShuffle()
            (se4): Sequential()
          )
          (6): IRFBlock(
            (pw): ConvBNRelu(
              (conv): Conv2d(64, 192, kernel_size=(1, 1), stride=(1, 1), bias=False)
              (bn): BatchNorm2d(192, eps=1e-05, momentum=0.1, affine=True, track_running_stats=True)
              (relu): ReLU(inplace=True)
            )
            (dw): ConvBNRelu(
              (conv): Conv2d(192, 192, kernel_size=(5, 5), stride=(1, 1), padding=(2, 2), groups=192, bias=False)
              (bn): BatchNorm2d(192, eps=1e-05, momentum=0.1, affine=True, track_running_stats=True)
              (relu): ReLU(inplace=True)
            )
            (pwl): ConvBNRelu(
              (conv): Conv2d(192, 64, kernel_size=(1, 1), stride=(1, 1), bias=False)
              (bn): BatchNorm2d(64, eps=1e-05, momentum=0.1, affine=True, track_running_stats=True)
            )
            (se4): Sequential()
          )
          (7): IRFBlock(
            (pw): ConvBNRelu(
              (conv): Conv2d(64, 384, kernel_size=(1, 1), stride=(1, 1), bias=False)
              (bn): BatchNorm2d(384, eps=1e-05, momentum=0.1, affine=True, track_running_stats=True)
              (relu): ReLU(inplace=True)
            )
            (dw): ConvBNRelu(
              (conv): Conv2d(384, 384, kernel_size=(5, 5), stride=(1, 1), padding=(2, 2), groups=384, bias=False)
              (bn): BatchNorm2d(384, eps=1e-05, momentum=0.1, affine=True, track_running_stats=True)
              (relu): ReLU(inplace=True)
            )
            (pwl): ConvBNRelu(
              (conv): Conv2d(384, 64, kernel_size=(1, 1), stride=(1, 1), bias=False)
              (bn): BatchNorm2d(64, eps=1e-05, momentum=0.1, affine=True, track_running_stats=True)
            )
            (se4): Sequential()
          )
          (8): Identity()
        )
      )
      (8): MixedOperation(
        (ops): ModuleList(
          (0): IRFBlock(
            (pw): ConvBNRelu(
              (conv): Conv2d(64, 64, kernel_size=(1, 1), stride=(1, 1), bias=False)
              (bn): BatchNorm2d(64, eps=1e-05, momentum=0.1, affine=True, track_running_stats=True)
              (relu): ReLU(inplace=True)
            )
            (dw): ConvBNRelu(
              (conv): Conv2d(64, 64, kernel_size=(3, 3), stride=(1, 1), padding=(1, 1), groups=64, bias=False)
              (bn): BatchNorm2d(64, eps=1e-05, momentum=0.1, affine=True, track_running_stats=True)
              (relu): ReLU(inplace=True)
            )
            (pwl): ConvBNRelu(
              (conv): Conv2d(64, 64, kernel_size=(1, 1), stride=(1, 1), bias=False)
              (bn): BatchNorm2d(64, eps=1e-05, momentum=0.1, affine=True, track_running_stats=True)
            )
            (se4): Sequential()
          )
          (1): IRFBlock(
            (pw): ConvBNRelu(
              (conv): Conv2d(64, 64, kernel_size=(1, 1), stride=(1, 1), groups=2, bias=False)
              (bn): BatchNorm2d(64, eps=1e-05, momentum=0.1, affine=True, track_running_stats=True)
              (relu): ReLU(inplace=True)
            )
            (dw): ConvBNRelu(
              (conv): Conv2d(64, 64, kernel_size=(3, 3), stride=(1, 1), padding=(1, 1), groups=64, bias=False)
              (bn): BatchNorm2d(64, eps=1e-05, momentum=0.1, affine=True, track_running_stats=True)
              (relu): ReLU(inplace=True)
            )
            (pwl): ConvBNRelu(
              (conv): Conv2d(64, 64, kernel_size=(1, 1), stride=(1, 1), groups=2, bias=False)
              (bn): BatchNorm2d(64, eps=1e-05, momentum=0.1, affine=True, track_running_stats=True)
            )
            (shuffle): ChannelShuffle()
            (se4): Sequential()
          )
          (2): IRFBlock(
            (pw): ConvBNRelu(
              (conv): Conv2d(64, 192, kernel_size=(1, 1), stride=(1, 1), bias=False)
              (bn): BatchNorm2d(192, eps=1e-05, momentum=0.1, affine=True, track_running_stats=True)
              (relu): ReLU(inplace=True)
            )
            (dw): ConvBNRelu(
              (conv): Conv2d(192, 192, kernel_size=(3, 3), stride=(1, 1), padding=(1, 1), groups=192, bias=False)
              (bn): BatchNorm2d(192, eps=1e-05, momentum=0.1, affine=True, track_running_stats=True)
              (relu): ReLU(inplace=True)
            )
            (pwl): ConvBNRelu(
              (conv): Conv2d(192, 64, kernel_size=(1, 1), stride=(1, 1), bias=False)
              (bn): BatchNorm2d(64, eps=1e-05, momentum=0.1, affine=True, track_running_stats=True)
            )
            (se4): Sequential()
          )
          (3): IRFBlock(
            (pw): ConvBNRelu(
              (conv): Conv2d(64, 384, kernel_size=(1, 1), stride=(1, 1), bias=False)
              (bn): BatchNorm2d(384, eps=1e-05, momentum=0.1, affine=True, track_running_stats=True)
              (relu): ReLU(inplace=True)
            )
            (dw): ConvBNRelu(
              (conv): Conv2d(384, 384, kernel_size=(3, 3), stride=(1, 1), padding=(1, 1), groups=384, bias=False)
              (bn): BatchNorm2d(384, eps=1e-05, momentum=0.1, affine=True, track_running_stats=True)
              (relu): ReLU(inplace=True)
            )
            (pwl): ConvBNRelu(
              (conv): Conv2d(384, 64, kernel_size=(1, 1), stride=(1, 1), bias=False)
              (bn): BatchNorm2d(64, eps=1e-05, momentum=0.1, affine=True, track_running_stats=True)
            )
            (se4): Sequential()
          )
          (4): IRFBlock(
            (pw): ConvBNRelu(
              (conv): Conv2d(64, 64, kernel_size=(1, 1), stride=(1, 1), bias=False)
              (bn): BatchNorm2d(64, eps=1e-05, momentum=0.1, affine=True, track_running_stats=True)
              (relu): ReLU(inplace=True)
            )
            (dw): ConvBNRelu(
              (conv): Conv2d(64, 64, kernel_size=(5, 5), stride=(1, 1), padding=(2, 2), groups=64, bias=False)
              (bn): BatchNorm2d(64, eps=1e-05, momentum=0.1, affine=True, track_running_stats=True)
              (relu): ReLU(inplace=True)
            )
            (pwl): ConvBNRelu(
              (conv): Conv2d(64, 64, kernel_size=(1, 1), stride=(1, 1), bias=False)
              (bn): BatchNorm2d(64, eps=1e-05, momentum=0.1, affine=True, track_running_stats=True)
            )
            (se4): Sequential()
          )
          (5): IRFBlock(
            (pw): ConvBNRelu(
              (conv): Conv2d(64, 64, kernel_size=(1, 1), stride=(1, 1), groups=2, bias=False)
              (bn): BatchNorm2d(64, eps=1e-05, momentum=0.1, affine=True, track_running_stats=True)
              (relu): ReLU(inplace=True)
            )
            (dw): ConvBNRelu(
              (conv): Conv2d(64, 64, kernel_size=(5, 5), stride=(1, 1), padding=(2, 2), groups=64, bias=False)
              (bn): BatchNorm2d(64, eps=1e-05, momentum=0.1, affine=True, track_running_stats=True)
              (relu): ReLU(inplace=True)
            )
            (pwl): ConvBNRelu(
              (conv): Conv2d(64, 64, kernel_size=(1, 1), stride=(1, 1), groups=2, bias=False)
              (bn): BatchNorm2d(64, eps=1e-05, momentum=0.1, affine=True, track_running_stats=True)
            )
            (shuffle): ChannelShuffle()
            (se4): Sequential()
          )
          (6): IRFBlock(
            (pw): ConvBNRelu(
              (conv): Conv2d(64, 192, kernel_size=(1, 1), stride=(1, 1), bias=False)
              (bn): BatchNorm2d(192, eps=1e-05, momentum=0.1, affine=True, track_running_stats=True)
              (relu): ReLU(inplace=True)
            )
            (dw): ConvBNRelu(
              (conv): Conv2d(192, 192, kernel_size=(5, 5), stride=(1, 1), padding=(2, 2), groups=192, bias=False)
              (bn): BatchNorm2d(192, eps=1e-05, momentum=0.1, affine=True, track_running_stats=True)
              (relu): ReLU(inplace=True)
            )
            (pwl): ConvBNRelu(
              (conv): Conv2d(192, 64, kernel_size=(1, 1), stride=(1, 1), bias=False)
              (bn): BatchNorm2d(64, eps=1e-05, momentum=0.1, affine=True, track_running_stats=True)
            )
            (se4): Sequential()
          )
          (7): IRFBlock(
            (pw): ConvBNRelu(
              (conv): Conv2d(64, 384, kernel_size=(1, 1), stride=(1, 1), bias=False)
              (bn): BatchNorm2d(384, eps=1e-05, momentum=0.1, affine=True, track_running_stats=True)
              (relu): ReLU(inplace=True)
            )
            (dw): ConvBNRelu(
              (conv): Conv2d(384, 384, kernel_size=(5, 5), stride=(1, 1), padding=(2, 2), groups=384, bias=False)
              (bn): BatchNorm2d(384, eps=1e-05, momentum=0.1, affine=True, track_running_stats=True)
              (relu): ReLU(inplace=True)
            )
            (pwl): ConvBNRelu(
              (conv): Conv2d(384, 64, kernel_size=(1, 1), stride=(1, 1), bias=False)
              (bn): BatchNorm2d(64, eps=1e-05, momentum=0.1, affine=True, track_running_stats=True)
            )
            (se4): Sequential()
          )
          (8): Identity()
        )
      )
      (9): MixedOperation(
        (ops): ModuleList(
          (0): IRFBlock(
            (pw): ConvBNRelu(
              (conv): Conv2d(64, 64, kernel_size=(1, 1), stride=(1, 1), bias=False)
              (bn): BatchNorm2d(64, eps=1e-05, momentum=0.1, affine=True, track_running_stats=True)
              (relu): ReLU(inplace=True)
            )
            (dw): ConvBNRelu(
              (conv): Conv2d(64, 64, kernel_size=(3, 3), stride=(1, 1), padding=(1, 1), groups=64, bias=False)
              (bn): BatchNorm2d(64, eps=1e-05, momentum=0.1, affine=True, track_running_stats=True)
              (relu): ReLU(inplace=True)
            )
            (pwl): ConvBNRelu(
              (conv): Conv2d(64, 64, kernel_size=(1, 1), stride=(1, 1), bias=False)
              (bn): BatchNorm2d(64, eps=1e-05, momentum=0.1, affine=True, track_running_stats=True)
            )
            (se4): Sequential()
          )
          (1): IRFBlock(
            (pw): ConvBNRelu(
              (conv): Conv2d(64, 64, kernel_size=(1, 1), stride=(1, 1), groups=2, bias=False)
              (bn): BatchNorm2d(64, eps=1e-05, momentum=0.1, affine=True, track_running_stats=True)
              (relu): ReLU(inplace=True)
            )
            (dw): ConvBNRelu(
              (conv): Conv2d(64, 64, kernel_size=(3, 3), stride=(1, 1), padding=(1, 1), groups=64, bias=False)
              (bn): BatchNorm2d(64, eps=1e-05, momentum=0.1, affine=True, track_running_stats=True)
              (relu): ReLU(inplace=True)
            )
            (pwl): ConvBNRelu(
              (conv): Conv2d(64, 64, kernel_size=(1, 1), stride=(1, 1), groups=2, bias=False)
              (bn): BatchNorm2d(64, eps=1e-05, momentum=0.1, affine=True, track_running_stats=True)
            )
            (shuffle): ChannelShuffle()
            (se4): Sequential()
          )
          (2): IRFBlock(
            (pw): ConvBNRelu(
              (conv): Conv2d(64, 192, kernel_size=(1, 1), stride=(1, 1), bias=False)
              (bn): BatchNorm2d(192, eps=1e-05, momentum=0.1, affine=True, track_running_stats=True)
              (relu): ReLU(inplace=True)
            )
            (dw): ConvBNRelu(
              (conv): Conv2d(192, 192, kernel_size=(3, 3), stride=(1, 1), padding=(1, 1), groups=192, bias=False)
              (bn): BatchNorm2d(192, eps=1e-05, momentum=0.1, affine=True, track_running_stats=True)
              (relu): ReLU(inplace=True)
            )
            (pwl): ConvBNRelu(
              (conv): Conv2d(192, 64, kernel_size=(1, 1), stride=(1, 1), bias=False)
              (bn): BatchNorm2d(64, eps=1e-05, momentum=0.1, affine=True, track_running_stats=True)
            )
            (se4): Sequential()
          )
          (3): IRFBlock(
            (pw): ConvBNRelu(
              (conv): Conv2d(64, 384, kernel_size=(1, 1), stride=(1, 1), bias=False)
              (bn): BatchNorm2d(384, eps=1e-05, momentum=0.1, affine=True, track_running_stats=True)
              (relu): ReLU(inplace=True)
            )
            (dw): ConvBNRelu(
              (conv): Conv2d(384, 384, kernel_size=(3, 3), stride=(1, 1), padding=(1, 1), groups=384, bias=False)
              (bn): BatchNorm2d(384, eps=1e-05, momentum=0.1, affine=True, track_running_stats=True)
              (relu): ReLU(inplace=True)
            )
            (pwl): ConvBNRelu(
              (conv): Conv2d(384, 64, kernel_size=(1, 1), stride=(1, 1), bias=False)
              (bn): BatchNorm2d(64, eps=1e-05, momentum=0.1, affine=True, track_running_stats=True)
            )
            (se4): Sequential()
          )
          (4): IRFBlock(
            (pw): ConvBNRelu(
              (conv): Conv2d(64, 64, kernel_size=(1, 1), stride=(1, 1), bias=False)
              (bn): BatchNorm2d(64, eps=1e-05, momentum=0.1, affine=True, track_running_stats=True)
              (relu): ReLU(inplace=True)
            )
            (dw): ConvBNRelu(
              (conv): Conv2d(64, 64, kernel_size=(5, 5), stride=(1, 1), padding=(2, 2), groups=64, bias=False)
              (bn): BatchNorm2d(64, eps=1e-05, momentum=0.1, affine=True, track_running_stats=True)
              (relu): ReLU(inplace=True)
            )
            (pwl): ConvBNRelu(
              (conv): Conv2d(64, 64, kernel_size=(1, 1), stride=(1, 1), bias=False)
              (bn): BatchNorm2d(64, eps=1e-05, momentum=0.1, affine=True, track_running_stats=True)
            )
            (se4): Sequential()
          )
          (5): IRFBlock(
            (pw): ConvBNRelu(
              (conv): Conv2d(64, 64, kernel_size=(1, 1), stride=(1, 1), groups=2, bias=False)
              (bn): BatchNorm2d(64, eps=1e-05, momentum=0.1, affine=True, track_running_stats=True)
              (relu): ReLU(inplace=True)
            )
            (dw): ConvBNRelu(
              (conv): Conv2d(64, 64, kernel_size=(5, 5), stride=(1, 1), padding=(2, 2), groups=64, bias=False)
              (bn): BatchNorm2d(64, eps=1e-05, momentum=0.1, affine=True, track_running_stats=True)
              (relu): ReLU(inplace=True)
            )
            (pwl): ConvBNRelu(
              (conv): Conv2d(64, 64, kernel_size=(1, 1), stride=(1, 1), groups=2, bias=False)
              (bn): BatchNorm2d(64, eps=1e-05, momentum=0.1, affine=True, track_running_stats=True)
            )
            (shuffle): ChannelShuffle()
            (se4): Sequential()
          )
          (6): IRFBlock(
            (pw): ConvBNRelu(
              (conv): Conv2d(64, 192, kernel_size=(1, 1), stride=(1, 1), bias=False)
              (bn): BatchNorm2d(192, eps=1e-05, momentum=0.1, affine=True, track_running_stats=True)
              (relu): ReLU(inplace=True)
            )
            (dw): ConvBNRelu(
              (conv): Conv2d(192, 192, kernel_size=(5, 5), stride=(1, 1), padding=(2, 2), groups=192, bias=False)
              (bn): BatchNorm2d(192, eps=1e-05, momentum=0.1, affine=True, track_running_stats=True)
              (relu): ReLU(inplace=True)
            )
            (pwl): ConvBNRelu(
              (conv): Conv2d(192, 64, kernel_size=(1, 1), stride=(1, 1), bias=False)
              (bn): BatchNorm2d(64, eps=1e-05, momentum=0.1, affine=True, track_running_stats=True)
            )
            (se4): Sequential()
          )
          (7): IRFBlock(
            (pw): ConvBNRelu(
              (conv): Conv2d(64, 384, kernel_size=(1, 1), stride=(1, 1), bias=False)
              (bn): BatchNorm2d(384, eps=1e-05, momentum=0.1, affine=True, track_running_stats=True)
              (relu): ReLU(inplace=True)
            )
            (dw): ConvBNRelu(
              (conv): Conv2d(384, 384, kernel_size=(5, 5), stride=(1, 1), padding=(2, 2), groups=384, bias=False)
              (bn): BatchNorm2d(384, eps=1e-05, momentum=0.1, affine=True, track_running_stats=True)
              (relu): ReLU(inplace=True)
            )
            (pwl): ConvBNRelu(
              (conv): Conv2d(384, 64, kernel_size=(1, 1), stride=(1, 1), bias=False)
              (bn): BatchNorm2d(64, eps=1e-05, momentum=0.1, affine=True, track_running_stats=True)
            )
            (se4): Sequential()
          )
          (8): Identity()
        )
      )
      (10): MixedOperation(
        (ops): ModuleList(
          (0): IRFBlock(
            (pw): ConvBNRelu(
              (conv): Conv2d(64, 64, kernel_size=(1, 1), stride=(1, 1), bias=False)
              (bn): BatchNorm2d(64, eps=1e-05, momentum=0.1, affine=True, track_running_stats=True)
              (relu): ReLU(inplace=True)
            )
            (dw): ConvBNRelu(
              (conv): Conv2d(64, 64, kernel_size=(3, 3), stride=(1, 1), padding=(1, 1), groups=64, bias=False)
              (bn): BatchNorm2d(64, eps=1e-05, momentum=0.1, affine=True, track_running_stats=True)
              (relu): ReLU(inplace=True)
            )
            (pwl): ConvBNRelu(
              (conv): Conv2d(64, 96, kernel_size=(1, 1), stride=(1, 1), bias=False)
              (bn): BatchNorm2d(96, eps=1e-05, momentum=0.1, affine=True, track_running_stats=True)
            )
            (se4): Sequential()
          )
          (1): IRFBlock(
            (pw): ConvBNRelu(
              (conv): Conv2d(64, 64, kernel_size=(1, 1), stride=(1, 1), groups=2, bias=False)
              (bn): BatchNorm2d(64, eps=1e-05, momentum=0.1, affine=True, track_running_stats=True)
              (relu): ReLU(inplace=True)
            )
            (dw): ConvBNRelu(
              (conv): Conv2d(64, 64, kernel_size=(3, 3), stride=(1, 1), padding=(1, 1), groups=64, bias=False)
              (bn): BatchNorm2d(64, eps=1e-05, momentum=0.1, affine=True, track_running_stats=True)
              (relu): ReLU(inplace=True)
            )
            (pwl): ConvBNRelu(
              (conv): Conv2d(64, 96, kernel_size=(1, 1), stride=(1, 1), groups=2, bias=False)
              (bn): BatchNorm2d(96, eps=1e-05, momentum=0.1, affine=True, track_running_stats=True)
            )
            (shuffle): ChannelShuffle()
            (se4): Sequential()
          )
          (2): IRFBlock(
            (pw): ConvBNRelu(
              (conv): Conv2d(64, 192, kernel_size=(1, 1), stride=(1, 1), bias=False)
              (bn): BatchNorm2d(192, eps=1e-05, momentum=0.1, affine=True, track_running_stats=True)
              (relu): ReLU(inplace=True)
            )
            (dw): ConvBNRelu(
              (conv): Conv2d(192, 192, kernel_size=(3, 3), stride=(1, 1), padding=(1, 1), groups=192, bias=False)
              (bn): BatchNorm2d(192, eps=1e-05, momentum=0.1, affine=True, track_running_stats=True)
              (relu): ReLU(inplace=True)
            )
            (pwl): ConvBNRelu(
              (conv): Conv2d(192, 96, kernel_size=(1, 1), stride=(1, 1), bias=False)
              (bn): BatchNorm2d(96, eps=1e-05, momentum=0.1, affine=True, track_running_stats=True)
            )
            (se4): Sequential()
          )
          (3): IRFBlock(
            (pw): ConvBNRelu(
              (conv): Conv2d(64, 384, kernel_size=(1, 1), stride=(1, 1), bias=False)
              (bn): BatchNorm2d(384, eps=1e-05, momentum=0.1, affine=True, track_running_stats=True)
              (relu): ReLU(inplace=True)
            )
            (dw): ConvBNRelu(
              (conv): Conv2d(384, 384, kernel_size=(3, 3), stride=(1, 1), padding=(1, 1), groups=384, bias=False)
              (bn): BatchNorm2d(384, eps=1e-05, momentum=0.1, affine=True, track_running_stats=True)
              (relu): ReLU(inplace=True)
            )
            (pwl): ConvBNRelu(
              (conv): Conv2d(384, 96, kernel_size=(1, 1), stride=(1, 1), bias=False)
              (bn): BatchNorm2d(96, eps=1e-05, momentum=0.1, affine=True, track_running_stats=True)
            )
            (se4): Sequential()
          )
          (4): IRFBlock(
            (pw): ConvBNRelu(
              (conv): Conv2d(64, 64, kernel_size=(1, 1), stride=(1, 1), bias=False)
              (bn): BatchNorm2d(64, eps=1e-05, momentum=0.1, affine=True, track_running_stats=True)
              (relu): ReLU(inplace=True)
            )
            (dw): ConvBNRelu(
              (conv): Conv2d(64, 64, kernel_size=(5, 5), stride=(1, 1), padding=(2, 2), groups=64, bias=False)
              (bn): BatchNorm2d(64, eps=1e-05, momentum=0.1, affine=True, track_running_stats=True)
              (relu): ReLU(inplace=True)
            )
            (pwl): ConvBNRelu(
              (conv): Conv2d(64, 96, kernel_size=(1, 1), stride=(1, 1), bias=False)
              (bn): BatchNorm2d(96, eps=1e-05, momentum=0.1, affine=True, track_running_stats=True)
            )
            (se4): Sequential()
          )
          (5): IRFBlock(
            (pw): ConvBNRelu(
              (conv): Conv2d(64, 64, kernel_size=(1, 1), stride=(1, 1), groups=2, bias=False)
              (bn): BatchNorm2d(64, eps=1e-05, momentum=0.1, affine=True, track_running_stats=True)
              (relu): ReLU(inplace=True)
            )
            (dw): ConvBNRelu(
              (conv): Conv2d(64, 64, kernel_size=(5, 5), stride=(1, 1), padding=(2, 2), groups=64, bias=False)
              (bn): BatchNorm2d(64, eps=1e-05, momentum=0.1, affine=True, track_running_stats=True)
              (relu): ReLU(inplace=True)
            )
            (pwl): ConvBNRelu(
              (conv): Conv2d(64, 96, kernel_size=(1, 1), stride=(1, 1), groups=2, bias=False)
              (bn): BatchNorm2d(96, eps=1e-05, momentum=0.1, affine=True, track_running_stats=True)
            )
            (shuffle): ChannelShuffle()
            (se4): Sequential()
          )
          (6): IRFBlock(
            (pw): ConvBNRelu(
              (conv): Conv2d(64, 192, kernel_size=(1, 1), stride=(1, 1), bias=False)
              (bn): BatchNorm2d(192, eps=1e-05, momentum=0.1, affine=True, track_running_stats=True)
              (relu): ReLU(inplace=True)
            )
            (dw): ConvBNRelu(
              (conv): Conv2d(192, 192, kernel_size=(5, 5), stride=(1, 1), padding=(2, 2), groups=192, bias=False)
              (bn): BatchNorm2d(192, eps=1e-05, momentum=0.1, affine=True, track_running_stats=True)
              (relu): ReLU(inplace=True)
            )
            (pwl): ConvBNRelu(
              (conv): Conv2d(192, 96, kernel_size=(1, 1), stride=(1, 1), bias=False)
              (bn): BatchNorm2d(96, eps=1e-05, momentum=0.1, affine=True, track_running_stats=True)
            )
            (se4): Sequential()
          )
          (7): IRFBlock(
            (pw): ConvBNRelu(
              (conv): Conv2d(64, 384, kernel_size=(1, 1), stride=(1, 1), bias=False)
              (bn): BatchNorm2d(384, eps=1e-05, momentum=0.1, affine=True, track_running_stats=True)
              (relu): ReLU(inplace=True)
            )
            (dw): ConvBNRelu(
              (conv): Conv2d(384, 384, kernel_size=(5, 5), stride=(1, 1), padding=(2, 2), groups=384, bias=False)
              (bn): BatchNorm2d(384, eps=1e-05, momentum=0.1, affine=True, track_running_stats=True)
              (relu): ReLU(inplace=True)
            )
            (pwl): ConvBNRelu(
              (conv): Conv2d(384, 96, kernel_size=(1, 1), stride=(1, 1), bias=False)
              (bn): BatchNorm2d(96, eps=1e-05, momentum=0.1, affine=True, track_running_stats=True)
            )
            (se4): Sequential()
          )
          (8): Identity(
            (conv): ConvBNRelu(
              (conv): Conv2d(64, 96, kernel_size=(1, 1), stride=(1, 1), bias=False)
              (bn): BatchNorm2d(96, eps=1e-05, momentum=0.1, affine=True, track_running_stats=True)
              (relu): ReLU(inplace=True)
            )
          )
        )
      )
      (11): MixedOperation(
        (ops): ModuleList(
          (0): IRFBlock(
            (pw): ConvBNRelu(
              (conv): Conv2d(96, 96, kernel_size=(1, 1), stride=(1, 1), bias=False)
              (bn): BatchNorm2d(96, eps=1e-05, momentum=0.1, affine=True, track_running_stats=True)
              (relu): ReLU(inplace=True)
            )
            (dw): ConvBNRelu(
              (conv): Conv2d(96, 96, kernel_size=(3, 3), stride=(1, 1), padding=(1, 1), groups=96, bias=False)
              (bn): BatchNorm2d(96, eps=1e-05, momentum=0.1, affine=True, track_running_stats=True)
              (relu): ReLU(inplace=True)
            )
            (pwl): ConvBNRelu(
              (conv): Conv2d(96, 96, kernel_size=(1, 1), stride=(1, 1), bias=False)
              (bn): BatchNorm2d(96, eps=1e-05, momentum=0.1, affine=True, track_running_stats=True)
            )
            (se4): Sequential()
          )
          (1): IRFBlock(
            (pw): ConvBNRelu(
              (conv): Conv2d(96, 96, kernel_size=(1, 1), stride=(1, 1), groups=2, bias=False)
              (bn): BatchNorm2d(96, eps=1e-05, momentum=0.1, affine=True, track_running_stats=True)
              (relu): ReLU(inplace=True)
            )
            (dw): ConvBNRelu(
              (conv): Conv2d(96, 96, kernel_size=(3, 3), stride=(1, 1), padding=(1, 1), groups=96, bias=False)
              (bn): BatchNorm2d(96, eps=1e-05, momentum=0.1, affine=True, track_running_stats=True)
              (relu): ReLU(inplace=True)
            )
            (pwl): ConvBNRelu(
              (conv): Conv2d(96, 96, kernel_size=(1, 1), stride=(1, 1), groups=2, bias=False)
              (bn): BatchNorm2d(96, eps=1e-05, momentum=0.1, affine=True, track_running_stats=True)
            )
            (shuffle): ChannelShuffle()
            (se4): Sequential()
          )
          (2): IRFBlock(
            (pw): ConvBNRelu(
              (conv): Conv2d(96, 288, kernel_size=(1, 1), stride=(1, 1), bias=False)
              (bn): BatchNorm2d(288, eps=1e-05, momentum=0.1, affine=True, track_running_stats=True)
              (relu): ReLU(inplace=True)
            )
            (dw): ConvBNRelu(
              (conv): Conv2d(288, 288, kernel_size=(3, 3), stride=(1, 1), padding=(1, 1), groups=288, bias=False)
              (bn): BatchNorm2d(288, eps=1e-05, momentum=0.1, affine=True, track_running_stats=True)
              (relu): ReLU(inplace=True)
            )
            (pwl): ConvBNRelu(
              (conv): Conv2d(288, 96, kernel_size=(1, 1), stride=(1, 1), bias=False)
              (bn): BatchNorm2d(96, eps=1e-05, momentum=0.1, affine=True, track_running_stats=True)
            )
            (se4): Sequential()
          )
          (3): IRFBlock(
            (pw): ConvBNRelu(
              (conv): Conv2d(96, 576, kernel_size=(1, 1), stride=(1, 1), bias=False)
              (bn): BatchNorm2d(576, eps=1e-05, momentum=0.1, affine=True, track_running_stats=True)
              (relu): ReLU(inplace=True)
            )
            (dw): ConvBNRelu(
              (conv): Conv2d(576, 576, kernel_size=(3, 3), stride=(1, 1), padding=(1, 1), groups=576, bias=False)
              (bn): BatchNorm2d(576, eps=1e-05, momentum=0.1, affine=True, track_running_stats=True)
              (relu): ReLU(inplace=True)
            )
            (pwl): ConvBNRelu(
              (conv): Conv2d(576, 96, kernel_size=(1, 1), stride=(1, 1), bias=False)
              (bn): BatchNorm2d(96, eps=1e-05, momentum=0.1, affine=True, track_running_stats=True)
            )
            (se4): Sequential()
          )
          (4): IRFBlock(
            (pw): ConvBNRelu(
              (conv): Conv2d(96, 96, kernel_size=(1, 1), stride=(1, 1), bias=False)
              (bn): BatchNorm2d(96, eps=1e-05, momentum=0.1, affine=True, track_running_stats=True)
              (relu): ReLU(inplace=True)
            )
            (dw): ConvBNRelu(
              (conv): Conv2d(96, 96, kernel_size=(5, 5), stride=(1, 1), padding=(2, 2), groups=96, bias=False)
              (bn): BatchNorm2d(96, eps=1e-05, momentum=0.1, affine=True, track_running_stats=True)
              (relu): ReLU(inplace=True)
            )
            (pwl): ConvBNRelu(
              (conv): Conv2d(96, 96, kernel_size=(1, 1), stride=(1, 1), bias=False)
              (bn): BatchNorm2d(96, eps=1e-05, momentum=0.1, affine=True, track_running_stats=True)
            )
            (se4): Sequential()
          )
          (5): IRFBlock(
            (pw): ConvBNRelu(
              (conv): Conv2d(96, 96, kernel_size=(1, 1), stride=(1, 1), groups=2, bias=False)
              (bn): BatchNorm2d(96, eps=1e-05, momentum=0.1, affine=True, track_running_stats=True)
              (relu): ReLU(inplace=True)
            )
            (dw): ConvBNRelu(
              (conv): Conv2d(96, 96, kernel_size=(5, 5), stride=(1, 1), padding=(2, 2), groups=96, bias=False)
              (bn): BatchNorm2d(96, eps=1e-05, momentum=0.1, affine=True, track_running_stats=True)
              (relu): ReLU(inplace=True)
            )
            (pwl): ConvBNRelu(
              (conv): Conv2d(96, 96, kernel_size=(1, 1), stride=(1, 1), groups=2, bias=False)
              (bn): BatchNorm2d(96, eps=1e-05, momentum=0.1, affine=True, track_running_stats=True)
            )
            (shuffle): ChannelShuffle()
            (se4): Sequential()
          )
          (6): IRFBlock(
            (pw): ConvBNRelu(
              (conv): Conv2d(96, 288, kernel_size=(1, 1), stride=(1, 1), bias=False)
              (bn): BatchNorm2d(288, eps=1e-05, momentum=0.1, affine=True, track_running_stats=True)
              (relu): ReLU(inplace=True)
            )
            (dw): ConvBNRelu(
              (conv): Conv2d(288, 288, kernel_size=(5, 5), stride=(1, 1), padding=(2, 2), groups=288, bias=False)
              (bn): BatchNorm2d(288, eps=1e-05, momentum=0.1, affine=True, track_running_stats=True)
              (relu): ReLU(inplace=True)
            )
            (pwl): ConvBNRelu(
              (conv): Conv2d(288, 96, kernel_size=(1, 1), stride=(1, 1), bias=False)
              (bn): BatchNorm2d(96, eps=1e-05, momentum=0.1, affine=True, track_running_stats=True)
            )
            (se4): Sequential()
          )
          (7): IRFBlock(
            (pw): ConvBNRelu(
              (conv): Conv2d(96, 576, kernel_size=(1, 1), stride=(1, 1), bias=False)
              (bn): BatchNorm2d(576, eps=1e-05, momentum=0.1, affine=True, track_running_stats=True)
              (relu): ReLU(inplace=True)
            )
            (dw): ConvBNRelu(
              (conv): Conv2d(576, 576, kernel_size=(5, 5), stride=(1, 1), padding=(2, 2), groups=576, bias=False)
              (bn): BatchNorm2d(576, eps=1e-05, momentum=0.1, affine=True, track_running_stats=True)
              (relu): ReLU(inplace=True)
            )
            (pwl): ConvBNRelu(
              (conv): Conv2d(576, 96, kernel_size=(1, 1), stride=(1, 1), bias=False)
              (bn): BatchNorm2d(96, eps=1e-05, momentum=0.1, affine=True, track_running_stats=True)
            )
            (se4): Sequential()
          )
          (8): Identity()
        )
      )
      (12): MixedOperation(
        (ops): ModuleList(
          (0): IRFBlock(
            (pw): ConvBNRelu(
              (conv): Conv2d(96, 96, kernel_size=(1, 1), stride=(1, 1), bias=False)
              (bn): BatchNorm2d(96, eps=1e-05, momentum=0.1, affine=True, track_running_stats=True)
              (relu): ReLU(inplace=True)
            )
            (dw): ConvBNRelu(
              (conv): Conv2d(96, 96, kernel_size=(3, 3), stride=(1, 1), padding=(1, 1), groups=96, bias=False)
              (bn): BatchNorm2d(96, eps=1e-05, momentum=0.1, affine=True, track_running_stats=True)
              (relu): ReLU(inplace=True)
            )
            (pwl): ConvBNRelu(
              (conv): Conv2d(96, 96, kernel_size=(1, 1), stride=(1, 1), bias=False)
              (bn): BatchNorm2d(96, eps=1e-05, momentum=0.1, affine=True, track_running_stats=True)
            )
            (se4): Sequential()
          )
          (1): IRFBlock(
            (pw): ConvBNRelu(
              (conv): Conv2d(96, 96, kernel_size=(1, 1), stride=(1, 1), groups=2, bias=False)
              (bn): BatchNorm2d(96, eps=1e-05, momentum=0.1, affine=True, track_running_stats=True)
              (relu): ReLU(inplace=True)
            )
            (dw): ConvBNRelu(
              (conv): Conv2d(96, 96, kernel_size=(3, 3), stride=(1, 1), padding=(1, 1), groups=96, bias=False)
              (bn): BatchNorm2d(96, eps=1e-05, momentum=0.1, affine=True, track_running_stats=True)
              (relu): ReLU(inplace=True)
            )
            (pwl): ConvBNRelu(
              (conv): Conv2d(96, 96, kernel_size=(1, 1), stride=(1, 1), groups=2, bias=False)
              (bn): BatchNorm2d(96, eps=1e-05, momentum=0.1, affine=True, track_running_stats=True)
            )
            (shuffle): ChannelShuffle()
            (se4): Sequential()
          )
          (2): IRFBlock(
            (pw): ConvBNRelu(
              (conv): Conv2d(96, 288, kernel_size=(1, 1), stride=(1, 1), bias=False)
              (bn): BatchNorm2d(288, eps=1e-05, momentum=0.1, affine=True, track_running_stats=True)
              (relu): ReLU(inplace=True)
            )
            (dw): ConvBNRelu(
              (conv): Conv2d(288, 288, kernel_size=(3, 3), stride=(1, 1), padding=(1, 1), groups=288, bias=False)
              (bn): BatchNorm2d(288, eps=1e-05, momentum=0.1, affine=True, track_running_stats=True)
              (relu): ReLU(inplace=True)
            )
            (pwl): ConvBNRelu(
              (conv): Conv2d(288, 96, kernel_size=(1, 1), stride=(1, 1), bias=False)
              (bn): BatchNorm2d(96, eps=1e-05, momentum=0.1, affine=True, track_running_stats=True)
            )
            (se4): Sequential()
          )
          (3): IRFBlock(
            (pw): ConvBNRelu(
              (conv): Conv2d(96, 576, kernel_size=(1, 1), stride=(1, 1), bias=False)
              (bn): BatchNorm2d(576, eps=1e-05, momentum=0.1, affine=True, track_running_stats=True)
              (relu): ReLU(inplace=True)
            )
            (dw): ConvBNRelu(
              (conv): Conv2d(576, 576, kernel_size=(3, 3), stride=(1, 1), padding=(1, 1), groups=576, bias=False)
              (bn): BatchNorm2d(576, eps=1e-05, momentum=0.1, affine=True, track_running_stats=True)
              (relu): ReLU(inplace=True)
            )
            (pwl): ConvBNRelu(
              (conv): Conv2d(576, 96, kernel_size=(1, 1), stride=(1, 1), bias=False)
              (bn): BatchNorm2d(96, eps=1e-05, momentum=0.1, affine=True, track_running_stats=True)
            )
            (se4): Sequential()
          )
          (4): IRFBlock(
            (pw): ConvBNRelu(
              (conv): Conv2d(96, 96, kernel_size=(1, 1), stride=(1, 1), bias=False)
              (bn): BatchNorm2d(96, eps=1e-05, momentum=0.1, affine=True, track_running_stats=True)
              (relu): ReLU(inplace=True)
            )
            (dw): ConvBNRelu(
              (conv): Conv2d(96, 96, kernel_size=(5, 5), stride=(1, 1), padding=(2, 2), groups=96, bias=False)
              (bn): BatchNorm2d(96, eps=1e-05, momentum=0.1, affine=True, track_running_stats=True)
              (relu): ReLU(inplace=True)
            )
            (pwl): ConvBNRelu(
              (conv): Conv2d(96, 96, kernel_size=(1, 1), stride=(1, 1), bias=False)
              (bn): BatchNorm2d(96, eps=1e-05, momentum=0.1, affine=True, track_running_stats=True)
            )
            (se4): Sequential()
          )
          (5): IRFBlock(
            (pw): ConvBNRelu(
              (conv): Conv2d(96, 96, kernel_size=(1, 1), stride=(1, 1), groups=2, bias=False)
              (bn): BatchNorm2d(96, eps=1e-05, momentum=0.1, affine=True, track_running_stats=True)
              (relu): ReLU(inplace=True)
            )
            (dw): ConvBNRelu(
              (conv): Conv2d(96, 96, kernel_size=(5, 5), stride=(1, 1), padding=(2, 2), groups=96, bias=False)
              (bn): BatchNorm2d(96, eps=1e-05, momentum=0.1, affine=True, track_running_stats=True)
              (relu): ReLU(inplace=True)
            )
            (pwl): ConvBNRelu(
              (conv): Conv2d(96, 96, kernel_size=(1, 1), stride=(1, 1), groups=2, bias=False)
              (bn): BatchNorm2d(96, eps=1e-05, momentum=0.1, affine=True, track_running_stats=True)
            )
            (shuffle): ChannelShuffle()
            (se4): Sequential()
          )
          (6): IRFBlock(
            (pw): ConvBNRelu(
              (conv): Conv2d(96, 288, kernel_size=(1, 1), stride=(1, 1), bias=False)
              (bn): BatchNorm2d(288, eps=1e-05, momentum=0.1, affine=True, track_running_stats=True)
              (relu): ReLU(inplace=True)
            )
            (dw): ConvBNRelu(
              (conv): Conv2d(288, 288, kernel_size=(5, 5), stride=(1, 1), padding=(2, 2), groups=288, bias=False)
              (bn): BatchNorm2d(288, eps=1e-05, momentum=0.1, affine=True, track_running_stats=True)
              (relu): ReLU(inplace=True)
            )
            (pwl): ConvBNRelu(
              (conv): Conv2d(288, 96, kernel_size=(1, 1), stride=(1, 1), bias=False)
              (bn): BatchNorm2d(96, eps=1e-05, momentum=0.1, affine=True, track_running_stats=True)
            )
            (se4): Sequential()
          )
          (7): IRFBlock(
            (pw): ConvBNRelu(
              (conv): Conv2d(96, 576, kernel_size=(1, 1), stride=(1, 1), bias=False)
              (bn): BatchNorm2d(576, eps=1e-05, momentum=0.1, affine=True, track_running_stats=True)
              (relu): ReLU(inplace=True)
            )
            (dw): ConvBNRelu(
              (conv): Conv2d(576, 576, kernel_size=(5, 5), stride=(1, 1), padding=(2, 2), groups=576, bias=False)
              (bn): BatchNorm2d(576, eps=1e-05, momentum=0.1, affine=True, track_running_stats=True)
              (relu): ReLU(inplace=True)
            )
            (pwl): ConvBNRelu(
              (conv): Conv2d(576, 96, kernel_size=(1, 1), stride=(1, 1), bias=False)
              (bn): BatchNorm2d(96, eps=1e-05, momentum=0.1, affine=True, track_running_stats=True)
            )
            (se4): Sequential()
          )
          (8): Identity()
        )
      )
      (13): MixedOperation(
        (ops): ModuleList(
          (0): IRFBlock(
            (pw): ConvBNRelu(
              (conv): Conv2d(96, 96, kernel_size=(1, 1), stride=(1, 1), bias=False)
              (bn): BatchNorm2d(96, eps=1e-05, momentum=0.1, affine=True, track_running_stats=True)
              (relu): ReLU(inplace=True)
            )
            (dw): ConvBNRelu(
              (conv): Conv2d(96, 96, kernel_size=(3, 3), stride=(2, 2), padding=(1, 1), groups=96, bias=False)
              (bn): BatchNorm2d(96, eps=1e-05, momentum=0.1, affine=True, track_running_stats=True)
              (relu): ReLU(inplace=True)
            )
            (pwl): ConvBNRelu(
              (conv): Conv2d(96, 160, kernel_size=(1, 1), stride=(1, 1), bias=False)
              (bn): BatchNorm2d(160, eps=1e-05, momentum=0.1, affine=True, track_running_stats=True)
            )
            (se4): Sequential()
          )
          (1): IRFBlock(
            (pw): ConvBNRelu(
              (conv): Conv2d(96, 96, kernel_size=(1, 1), stride=(1, 1), groups=2, bias=False)
              (bn): BatchNorm2d(96, eps=1e-05, momentum=0.1, affine=True, track_running_stats=True)
              (relu): ReLU(inplace=True)
            )
            (dw): ConvBNRelu(
              (conv): Conv2d(96, 96, kernel_size=(3, 3), stride=(2, 2), padding=(1, 1), groups=96, bias=False)
              (bn): BatchNorm2d(96, eps=1e-05, momentum=0.1, affine=True, track_running_stats=True)
              (relu): ReLU(inplace=True)
            )
            (pwl): ConvBNRelu(
              (conv): Conv2d(96, 160, kernel_size=(1, 1), stride=(1, 1), groups=2, bias=False)
              (bn): BatchNorm2d(160, eps=1e-05, momentum=0.1, affine=True, track_running_stats=True)
            )
            (shuffle): ChannelShuffle()
            (se4): Sequential()
          )
          (2): IRFBlock(
            (pw): ConvBNRelu(
              (conv): Conv2d(96, 288, kernel_size=(1, 1), stride=(1, 1), bias=False)
              (bn): BatchNorm2d(288, eps=1e-05, momentum=0.1, affine=True, track_running_stats=True)
              (relu): ReLU(inplace=True)
            )
            (dw): ConvBNRelu(
              (conv): Conv2d(288, 288, kernel_size=(3, 3), stride=(2, 2), padding=(1, 1), groups=288, bias=False)
              (bn): BatchNorm2d(288, eps=1e-05, momentum=0.1, affine=True, track_running_stats=True)
              (relu): ReLU(inplace=True)
            )
            (pwl): ConvBNRelu(
              (conv): Conv2d(288, 160, kernel_size=(1, 1), stride=(1, 1), bias=False)
              (bn): BatchNorm2d(160, eps=1e-05, momentum=0.1, affine=True, track_running_stats=True)
            )
            (se4): Sequential()
          )
          (3): IRFBlock(
            (pw): ConvBNRelu(
              (conv): Conv2d(96, 576, kernel_size=(1, 1), stride=(1, 1), bias=False)
              (bn): BatchNorm2d(576, eps=1e-05, momentum=0.1, affine=True, track_running_stats=True)
              (relu): ReLU(inplace=True)
            )
            (dw): ConvBNRelu(
              (conv): Conv2d(576, 576, kernel_size=(3, 3), stride=(2, 2), padding=(1, 1), groups=576, bias=False)
              (bn): BatchNorm2d(576, eps=1e-05, momentum=0.1, affine=True, track_running_stats=True)
              (relu): ReLU(inplace=True)
            )
            (pwl): ConvBNRelu(
              (conv): Conv2d(576, 160, kernel_size=(1, 1), stride=(1, 1), bias=False)
              (bn): BatchNorm2d(160, eps=1e-05, momentum=0.1, affine=True, track_running_stats=True)
            )
            (se4): Sequential()
          )
          (4): IRFBlock(
            (pw): ConvBNRelu(
              (conv): Conv2d(96, 96, kernel_size=(1, 1), stride=(1, 1), bias=False)
              (bn): BatchNorm2d(96, eps=1e-05, momentum=0.1, affine=True, track_running_stats=True)
              (relu): ReLU(inplace=True)
            )
            (dw): ConvBNRelu(
              (conv): Conv2d(96, 96, kernel_size=(5, 5), stride=(2, 2), padding=(2, 2), groups=96, bias=False)
              (bn): BatchNorm2d(96, eps=1e-05, momentum=0.1, affine=True, track_running_stats=True)
              (relu): ReLU(inplace=True)
            )
            (pwl): ConvBNRelu(
              (conv): Conv2d(96, 160, kernel_size=(1, 1), stride=(1, 1), bias=False)
              (bn): BatchNorm2d(160, eps=1e-05, momentum=0.1, affine=True, track_running_stats=True)
            )
            (se4): Sequential()
          )
          (5): IRFBlock(
            (pw): ConvBNRelu(
              (conv): Conv2d(96, 96, kernel_size=(1, 1), stride=(1, 1), groups=2, bias=False)
              (bn): BatchNorm2d(96, eps=1e-05, momentum=0.1, affine=True, track_running_stats=True)
              (relu): ReLU(inplace=True)
            )
            (dw): ConvBNRelu(
              (conv): Conv2d(96, 96, kernel_size=(5, 5), stride=(2, 2), padding=(2, 2), groups=96, bias=False)
              (bn): BatchNorm2d(96, eps=1e-05, momentum=0.1, affine=True, track_running_stats=True)
              (relu): ReLU(inplace=True)
            )
            (pwl): ConvBNRelu(
              (conv): Conv2d(96, 160, kernel_size=(1, 1), stride=(1, 1), groups=2, bias=False)
              (bn): BatchNorm2d(160, eps=1e-05, momentum=0.1, affine=True, track_running_stats=True)
            )
            (shuffle): ChannelShuffle()
            (se4): Sequential()
          )
          (6): IRFBlock(
            (pw): ConvBNRelu(
              (conv): Conv2d(96, 288, kernel_size=(1, 1), stride=(1, 1), bias=False)
              (bn): BatchNorm2d(288, eps=1e-05, momentum=0.1, affine=True, track_running_stats=True)
              (relu): ReLU(inplace=True)
            )
            (dw): ConvBNRelu(
              (conv): Conv2d(288, 288, kernel_size=(5, 5), stride=(2, 2), padding=(2, 2), groups=288, bias=False)
              (bn): BatchNorm2d(288, eps=1e-05, momentum=0.1, affine=True, track_running_stats=True)
              (relu): ReLU(inplace=True)
            )
            (pwl): ConvBNRelu(
              (conv): Conv2d(288, 160, kernel_size=(1, 1), stride=(1, 1), bias=False)
              (bn): BatchNorm2d(160, eps=1e-05, momentum=0.1, affine=True, track_running_stats=True)
            )
            (se4): Sequential()
          )
          (7): IRFBlock(
            (pw): ConvBNRelu(
              (conv): Conv2d(96, 576, kernel_size=(1, 1), stride=(1, 1), bias=False)
              (bn): BatchNorm2d(576, eps=1e-05, momentum=0.1, affine=True, track_running_stats=True)
              (relu): ReLU(inplace=True)
            )
            (dw): ConvBNRelu(
              (conv): Conv2d(576, 576, kernel_size=(5, 5), stride=(2, 2), padding=(2, 2), groups=576, bias=False)
              (bn): BatchNorm2d(576, eps=1e-05, momentum=0.1, affine=True, track_running_stats=True)
              (relu): ReLU(inplace=True)
            )
            (pwl): ConvBNRelu(
              (conv): Conv2d(576, 160, kernel_size=(1, 1), stride=(1, 1), bias=False)
              (bn): BatchNorm2d(160, eps=1e-05, momentum=0.1, affine=True, track_running_stats=True)
            )
            (se4): Sequential()
          )
          (8): Identity(
            (conv): ConvBNRelu(
              (conv): Conv2d(96, 160, kernel_size=(1, 1), stride=(2, 2), bias=False)
              (bn): BatchNorm2d(160, eps=1e-05, momentum=0.1, affine=True, track_running_stats=True)
              (relu): ReLU(inplace=True)
            )
          )
        )
      )
      (14): MixedOperation(
        (ops): ModuleList(
          (0): IRFBlock(
            (pw): ConvBNRelu(
              (conv): Conv2d(160, 160, kernel_size=(1, 1), stride=(1, 1), bias=False)
              (bn): BatchNorm2d(160, eps=1e-05, momentum=0.1, affine=True, track_running_stats=True)
              (relu): ReLU(inplace=True)
            )
            (dw): ConvBNRelu(
              (conv): Conv2d(160, 160, kernel_size=(3, 3), stride=(1, 1), padding=(1, 1), groups=160, bias=False)
              (bn): BatchNorm2d(160, eps=1e-05, momentum=0.1, affine=True, track_running_stats=True)
              (relu): ReLU(inplace=True)
            )
            (pwl): ConvBNRelu(
              (conv): Conv2d(160, 160, kernel_size=(1, 1), stride=(1, 1), bias=False)
              (bn): BatchNorm2d(160, eps=1e-05, momentum=0.1, affine=True, track_running_stats=True)
            )
            (se4): Sequential()
          )
          (1): IRFBlock(
            (pw): ConvBNRelu(
              (conv): Conv2d(160, 160, kernel_size=(1, 1), stride=(1, 1), groups=2, bias=False)
              (bn): BatchNorm2d(160, eps=1e-05, momentum=0.1, affine=True, track_running_stats=True)
              (relu): ReLU(inplace=True)
            )
            (dw): ConvBNRelu(
              (conv): Conv2d(160, 160, kernel_size=(3, 3), stride=(1, 1), padding=(1, 1), groups=160, bias=False)
              (bn): BatchNorm2d(160, eps=1e-05, momentum=0.1, affine=True, track_running_stats=True)
              (relu): ReLU(inplace=True)
            )
            (pwl): ConvBNRelu(
              (conv): Conv2d(160, 160, kernel_size=(1, 1), stride=(1, 1), groups=2, bias=False)
              (bn): BatchNorm2d(160, eps=1e-05, momentum=0.1, affine=True, track_running_stats=True)
            )
            (shuffle): ChannelShuffle()
            (se4): Sequential()
          )
          (2): IRFBlock(
            (pw): ConvBNRelu(
              (conv): Conv2d(160, 480, kernel_size=(1, 1), stride=(1, 1), bias=False)
              (bn): BatchNorm2d(480, eps=1e-05, momentum=0.1, affine=True, track_running_stats=True)
              (relu): ReLU(inplace=True)
            )
            (dw): ConvBNRelu(
              (conv): Conv2d(480, 480, kernel_size=(3, 3), stride=(1, 1), padding=(1, 1), groups=480, bias=False)
              (bn): BatchNorm2d(480, eps=1e-05, momentum=0.1, affine=True, track_running_stats=True)
              (relu): ReLU(inplace=True)
            )
            (pwl): ConvBNRelu(
              (conv): Conv2d(480, 160, kernel_size=(1, 1), stride=(1, 1), bias=False)
              (bn): BatchNorm2d(160, eps=1e-05, momentum=0.1, affine=True, track_running_stats=True)
            )
            (se4): Sequential()
          )
          (3): IRFBlock(
            (pw): ConvBNRelu(
              (conv): Conv2d(160, 960, kernel_size=(1, 1), stride=(1, 1), bias=False)
              (bn): BatchNorm2d(960, eps=1e-05, momentum=0.1, affine=True, track_running_stats=True)
              (relu): ReLU(inplace=True)
            )
            (dw): ConvBNRelu(
              (conv): Conv2d(960, 960, kernel_size=(3, 3), stride=(1, 1), padding=(1, 1), groups=960, bias=False)
              (bn): BatchNorm2d(960, eps=1e-05, momentum=0.1, affine=True, track_running_stats=True)
              (relu): ReLU(inplace=True)
            )
            (pwl): ConvBNRelu(
              (conv): Conv2d(960, 160, kernel_size=(1, 1), stride=(1, 1), bias=False)
              (bn): BatchNorm2d(160, eps=1e-05, momentum=0.1, affine=True, track_running_stats=True)
            )
            (se4): Sequential()
          )
          (4): IRFBlock(
            (pw): ConvBNRelu(
              (conv): Conv2d(160, 160, kernel_size=(1, 1), stride=(1, 1), bias=False)
              (bn): BatchNorm2d(160, eps=1e-05, momentum=0.1, affine=True, track_running_stats=True)
              (relu): ReLU(inplace=True)
            )
            (dw): ConvBNRelu(
              (conv): Conv2d(160, 160, kernel_size=(5, 5), stride=(1, 1), padding=(2, 2), groups=160, bias=False)
              (bn): BatchNorm2d(160, eps=1e-05, momentum=0.1, affine=True, track_running_stats=True)
              (relu): ReLU(inplace=True)
            )
            (pwl): ConvBNRelu(
              (conv): Conv2d(160, 160, kernel_size=(1, 1), stride=(1, 1), bias=False)
              (bn): BatchNorm2d(160, eps=1e-05, momentum=0.1, affine=True, track_running_stats=True)
            )
            (se4): Sequential()
          )
          (5): IRFBlock(
            (pw): ConvBNRelu(
              (conv): Conv2d(160, 160, kernel_size=(1, 1), stride=(1, 1), groups=2, bias=False)
              (bn): BatchNorm2d(160, eps=1e-05, momentum=0.1, affine=True, track_running_stats=True)
              (relu): ReLU(inplace=True)
            )
            (dw): ConvBNRelu(
              (conv): Conv2d(160, 160, kernel_size=(5, 5), stride=(1, 1), padding=(2, 2), groups=160, bias=False)
              (bn): BatchNorm2d(160, eps=1e-05, momentum=0.1, affine=True, track_running_stats=True)
              (relu): ReLU(inplace=True)
            )
            (pwl): ConvBNRelu(
              (conv): Conv2d(160, 160, kernel_size=(1, 1), stride=(1, 1), groups=2, bias=False)
              (bn): BatchNorm2d(160, eps=1e-05, momentum=0.1, affine=True, track_running_stats=True)
            )
            (shuffle): ChannelShuffle()
            (se4): Sequential()
          )
          (6): IRFBlock(
            (pw): ConvBNRelu(
              (conv): Conv2d(160, 480, kernel_size=(1, 1), stride=(1, 1), bias=False)
              (bn): BatchNorm2d(480, eps=1e-05, momentum=0.1, affine=True, track_running_stats=True)
              (relu): ReLU(inplace=True)
            )
            (dw): ConvBNRelu(
              (conv): Conv2d(480, 480, kernel_size=(5, 5), stride=(1, 1), padding=(2, 2), groups=480, bias=False)
              (bn): BatchNorm2d(480, eps=1e-05, momentum=0.1, affine=True, track_running_stats=True)
              (relu): ReLU(inplace=True)
            )
            (pwl): ConvBNRelu(
              (conv): Conv2d(480, 160, kernel_size=(1, 1), stride=(1, 1), bias=False)
              (bn): BatchNorm2d(160, eps=1e-05, momentum=0.1, affine=True, track_running_stats=True)
            )
            (se4): Sequential()
          )
          (7): IRFBlock(
            (pw): ConvBNRelu(
              (conv): Conv2d(160, 960, kernel_size=(1, 1), stride=(1, 1), bias=False)
              (bn): BatchNorm2d(960, eps=1e-05, momentum=0.1, affine=True, track_running_stats=True)
              (relu): ReLU(inplace=True)
            )
            (dw): ConvBNRelu(
              (conv): Conv2d(960, 960, kernel_size=(5, 5), stride=(1, 1), padding=(2, 2), groups=960, bias=False)
              (bn): BatchNorm2d(960, eps=1e-05, momentum=0.1, affine=True, track_running_stats=True)
              (relu): ReLU(inplace=True)
            )
            (pwl): ConvBNRelu(
              (conv): Conv2d(960, 160, kernel_size=(1, 1), stride=(1, 1), bias=False)
              (bn): BatchNorm2d(160, eps=1e-05, momentum=0.1, affine=True, track_running_stats=True)
            )
            (se4): Sequential()
          )
          (8): Identity()
        )
      )
      (15): MixedOperation(
        (ops): ModuleList(
          (0): IRFBlock(
            (pw): ConvBNRelu(
              (conv): Conv2d(160, 160, kernel_size=(1, 1), stride=(1, 1), bias=False)
              (bn): BatchNorm2d(160, eps=1e-05, momentum=0.1, affine=True, track_running_stats=True)
              (relu): ReLU(inplace=True)
            )
            (dw): ConvBNRelu(
              (conv): Conv2d(160, 160, kernel_size=(3, 3), stride=(1, 1), padding=(1, 1), groups=160, bias=False)
              (bn): BatchNorm2d(160, eps=1e-05, momentum=0.1, affine=True, track_running_stats=True)
              (relu): ReLU(inplace=True)
            )
            (pwl): ConvBNRelu(
              (conv): Conv2d(160, 160, kernel_size=(1, 1), stride=(1, 1), bias=False)
              (bn): BatchNorm2d(160, eps=1e-05, momentum=0.1, affine=True, track_running_stats=True)
            )
            (se4): Sequential()
          )
          (1): IRFBlock(
            (pw): ConvBNRelu(
              (conv): Conv2d(160, 160, kernel_size=(1, 1), stride=(1, 1), groups=2, bias=False)
              (bn): BatchNorm2d(160, eps=1e-05, momentum=0.1, affine=True, track_running_stats=True)
              (relu): ReLU(inplace=True)
            )
            (dw): ConvBNRelu(
              (conv): Conv2d(160, 160, kernel_size=(3, 3), stride=(1, 1), padding=(1, 1), groups=160, bias=False)
              (bn): BatchNorm2d(160, eps=1e-05, momentum=0.1, affine=True, track_running_stats=True)
              (relu): ReLU(inplace=True)
            )
            (pwl): ConvBNRelu(
              (conv): Conv2d(160, 160, kernel_size=(1, 1), stride=(1, 1), groups=2, bias=False)
              (bn): BatchNorm2d(160, eps=1e-05, momentum=0.1, affine=True, track_running_stats=True)
            )
            (shuffle): ChannelShuffle()
            (se4): Sequential()
          )
          (2): IRFBlock(
            (pw): ConvBNRelu(
              (conv): Conv2d(160, 480, kernel_size=(1, 1), stride=(1, 1), bias=False)
              (bn): BatchNorm2d(480, eps=1e-05, momentum=0.1, affine=True, track_running_stats=True)
              (relu): ReLU(inplace=True)
            )
            (dw): ConvBNRelu(
              (conv): Conv2d(480, 480, kernel_size=(3, 3), stride=(1, 1), padding=(1, 1), groups=480, bias=False)
              (bn): BatchNorm2d(480, eps=1e-05, momentum=0.1, affine=True, track_running_stats=True)
              (relu): ReLU(inplace=True)
            )
            (pwl): ConvBNRelu(
              (conv): Conv2d(480, 160, kernel_size=(1, 1), stride=(1, 1), bias=False)
              (bn): BatchNorm2d(160, eps=1e-05, momentum=0.1, affine=True, track_running_stats=True)
            )
            (se4): Sequential()
          )
          (3): IRFBlock(
            (pw): ConvBNRelu(
              (conv): Conv2d(160, 960, kernel_size=(1, 1), stride=(1, 1), bias=False)
              (bn): BatchNorm2d(960, eps=1e-05, momentum=0.1, affine=True, track_running_stats=True)
              (relu): ReLU(inplace=True)
            )
            (dw): ConvBNRelu(
              (conv): Conv2d(960, 960, kernel_size=(3, 3), stride=(1, 1), padding=(1, 1), groups=960, bias=False)
              (bn): BatchNorm2d(960, eps=1e-05, momentum=0.1, affine=True, track_running_stats=True)
              (relu): ReLU(inplace=True)
            )
            (pwl): ConvBNRelu(
              (conv): Conv2d(960, 160, kernel_size=(1, 1), stride=(1, 1), bias=False)
              (bn): BatchNorm2d(160, eps=1e-05, momentum=0.1, affine=True, track_running_stats=True)
            )
            (se4): Sequential()
          )
          (4): IRFBlock(
            (pw): ConvBNRelu(
              (conv): Conv2d(160, 160, kernel_size=(1, 1), stride=(1, 1), bias=False)
              (bn): BatchNorm2d(160, eps=1e-05, momentum=0.1, affine=True, track_running_stats=True)
              (relu): ReLU(inplace=True)
            )
            (dw): ConvBNRelu(
              (conv): Conv2d(160, 160, kernel_size=(5, 5), stride=(1, 1), padding=(2, 2), groups=160, bias=False)
              (bn): BatchNorm2d(160, eps=1e-05, momentum=0.1, affine=True, track_running_stats=True)
              (relu): ReLU(inplace=True)
            )
            (pwl): ConvBNRelu(
              (conv): Conv2d(160, 160, kernel_size=(1, 1), stride=(1, 1), bias=False)
              (bn): BatchNorm2d(160, eps=1e-05, momentum=0.1, affine=True, track_running_stats=True)
            )
            (se4): Sequential()
          )
          (5): IRFBlock(
            (pw): ConvBNRelu(
              (conv): Conv2d(160, 160, kernel_size=(1, 1), stride=(1, 1), groups=2, bias=False)
              (bn): BatchNorm2d(160, eps=1e-05, momentum=0.1, affine=True, track_running_stats=True)
              (relu): ReLU(inplace=True)
            )
            (dw): ConvBNRelu(
              (conv): Conv2d(160, 160, kernel_size=(5, 5), stride=(1, 1), padding=(2, 2), groups=160, bias=False)
              (bn): BatchNorm2d(160, eps=1e-05, momentum=0.1, affine=True, track_running_stats=True)
              (relu): ReLU(inplace=True)
            )
            (pwl): ConvBNRelu(
              (conv): Conv2d(160, 160, kernel_size=(1, 1), stride=(1, 1), groups=2, bias=False)
              (bn): BatchNorm2d(160, eps=1e-05, momentum=0.1, affine=True, track_running_stats=True)
            )
            (shuffle): ChannelShuffle()
            (se4): Sequential()
          )
          (6): IRFBlock(
            (pw): ConvBNRelu(
              (conv): Conv2d(160, 480, kernel_size=(1, 1), stride=(1, 1), bias=False)
              (bn): BatchNorm2d(480, eps=1e-05, momentum=0.1, affine=True, track_running_stats=True)
              (relu): ReLU(inplace=True)
            )
            (dw): ConvBNRelu(
              (conv): Conv2d(480, 480, kernel_size=(5, 5), stride=(1, 1), padding=(2, 2), groups=480, bias=False)
              (bn): BatchNorm2d(480, eps=1e-05, momentum=0.1, affine=True, track_running_stats=True)
              (relu): ReLU(inplace=True)
            )
            (pwl): ConvBNRelu(
              (conv): Conv2d(480, 160, kernel_size=(1, 1), stride=(1, 1), bias=False)
              (bn): BatchNorm2d(160, eps=1e-05, momentum=0.1, affine=True, track_running_stats=True)
            )
            (se4): Sequential()
          )
          (7): IRFBlock(
            (pw): ConvBNRelu(
              (conv): Conv2d(160, 960, kernel_size=(1, 1), stride=(1, 1), bias=False)
              (bn): BatchNorm2d(960, eps=1e-05, momentum=0.1, affine=True, track_running_stats=True)
              (relu): ReLU(inplace=True)
            )
            (dw): ConvBNRelu(
              (conv): Conv2d(960, 960, kernel_size=(5, 5), stride=(1, 1), padding=(2, 2), groups=960, bias=False)
              (bn): BatchNorm2d(960, eps=1e-05, momentum=0.1, affine=True, track_running_stats=True)
              (relu): ReLU(inplace=True)
            )
            (pwl): ConvBNRelu(
              (conv): Conv2d(960, 160, kernel_size=(1, 1), stride=(1, 1), bias=False)
              (bn): BatchNorm2d(160, eps=1e-05, momentum=0.1, affine=True, track_running_stats=True)
            )
            (se4): Sequential()
          )
          (8): Identity()
        )
      )
      (16): MixedOperation(
        (ops): ModuleList(
          (0): IRFBlock(
            (pw): ConvBNRelu(
              (conv): Conv2d(160, 160, kernel_size=(1, 1), stride=(1, 1), bias=False)
              (bn): BatchNorm2d(160, eps=1e-05, momentum=0.1, affine=True, track_running_stats=True)
              (relu): ReLU(inplace=True)
            )
            (dw): ConvBNRelu(
              (conv): Conv2d(160, 160, kernel_size=(3, 3), stride=(1, 1), padding=(1, 1), groups=160, bias=False)
              (bn): BatchNorm2d(160, eps=1e-05, momentum=0.1, affine=True, track_running_stats=True)
              (relu): ReLU(inplace=True)
            )
            (pwl): ConvBNRelu(
              (conv): Conv2d(160, 320, kernel_size=(1, 1), stride=(1, 1), bias=False)
              (bn): BatchNorm2d(320, eps=1e-05, momentum=0.1, affine=True, track_running_stats=True)
            )
            (se4): Sequential()
          )
          (1): IRFBlock(
            (pw): ConvBNRelu(
              (conv): Conv2d(160, 160, kernel_size=(1, 1), stride=(1, 1), groups=2, bias=False)
              (bn): BatchNorm2d(160, eps=1e-05, momentum=0.1, affine=True, track_running_stats=True)
              (relu): ReLU(inplace=True)
            )
            (dw): ConvBNRelu(
              (conv): Conv2d(160, 160, kernel_size=(3, 3), stride=(1, 1), padding=(1, 1), groups=160, bias=False)
              (bn): BatchNorm2d(160, eps=1e-05, momentum=0.1, affine=True, track_running_stats=True)
              (relu): ReLU(inplace=True)
            )
            (pwl): ConvBNRelu(
              (conv): Conv2d(160, 320, kernel_size=(1, 1), stride=(1, 1), groups=2, bias=False)
              (bn): BatchNorm2d(320, eps=1e-05, momentum=0.1, affine=True, track_running_stats=True)
            )
            (shuffle): ChannelShuffle()
            (se4): Sequential()
          )
          (2): IRFBlock(
            (pw): ConvBNRelu(
              (conv): Conv2d(160, 480, kernel_size=(1, 1), stride=(1, 1), bias=False)
              (bn): BatchNorm2d(480, eps=1e-05, momentum=0.1, affine=True, track_running_stats=True)
              (relu): ReLU(inplace=True)
            )
            (dw): ConvBNRelu(
              (conv): Conv2d(480, 480, kernel_size=(3, 3), stride=(1, 1), padding=(1, 1), groups=480, bias=False)
              (bn): BatchNorm2d(480, eps=1e-05, momentum=0.1, affine=True, track_running_stats=True)
              (relu): ReLU(inplace=True)
            )
            (pwl): ConvBNRelu(
              (conv): Conv2d(480, 320, kernel_size=(1, 1), stride=(1, 1), bias=False)
              (bn): BatchNorm2d(320, eps=1e-05, momentum=0.1, affine=True, track_running_stats=True)
            )
            (se4): Sequential()
          )
          (3): IRFBlock(
            (pw): ConvBNRelu(
              (conv): Conv2d(160, 960, kernel_size=(1, 1), stride=(1, 1), bias=False)
              (bn): BatchNorm2d(960, eps=1e-05, momentum=0.1, affine=True, track_running_stats=True)
              (relu): ReLU(inplace=True)
            )
            (dw): ConvBNRelu(
              (conv): Conv2d(960, 960, kernel_size=(3, 3), stride=(1, 1), padding=(1, 1), groups=960, bias=False)
              (bn): BatchNorm2d(960, eps=1e-05, momentum=0.1, affine=True, track_running_stats=True)
              (relu): ReLU(inplace=True)
            )
            (pwl): ConvBNRelu(
              (conv): Conv2d(960, 320, kernel_size=(1, 1), stride=(1, 1), bias=False)
              (bn): BatchNorm2d(320, eps=1e-05, momentum=0.1, affine=True, track_running_stats=True)
            )
            (se4): Sequential()
          )
          (4): IRFBlock(
            (pw): ConvBNRelu(
              (conv): Conv2d(160, 160, kernel_size=(1, 1), stride=(1, 1), bias=False)
              (bn): BatchNorm2d(160, eps=1e-05, momentum=0.1, affine=True, track_running_stats=True)
              (relu): ReLU(inplace=True)
            )
            (dw): ConvBNRelu(
              (conv): Conv2d(160, 160, kernel_size=(5, 5), stride=(1, 1), padding=(2, 2), groups=160, bias=False)
              (bn): BatchNorm2d(160, eps=1e-05, momentum=0.1, affine=True, track_running_stats=True)
              (relu): ReLU(inplace=True)
            )
            (pwl): ConvBNRelu(
              (conv): Conv2d(160, 320, kernel_size=(1, 1), stride=(1, 1), bias=False)
              (bn): BatchNorm2d(320, eps=1e-05, momentum=0.1, affine=True, track_running_stats=True)
            )
            (se4): Sequential()
          )
          (5): IRFBlock(
            (pw): ConvBNRelu(
              (conv): Conv2d(160, 160, kernel_size=(1, 1), stride=(1, 1), groups=2, bias=False)
              (bn): BatchNorm2d(160, eps=1e-05, momentum=0.1, affine=True, track_running_stats=True)
              (relu): ReLU(inplace=True)
            )
            (dw): ConvBNRelu(
              (conv): Conv2d(160, 160, kernel_size=(5, 5), stride=(1, 1), padding=(2, 2), groups=160, bias=False)
              (bn): BatchNorm2d(160, eps=1e-05, momentum=0.1, affine=True, track_running_stats=True)
              (relu): ReLU(inplace=True)
            )
            (pwl): ConvBNRelu(
              (conv): Conv2d(160, 320, kernel_size=(1, 1), stride=(1, 1), groups=2, bias=False)
              (bn): BatchNorm2d(320, eps=1e-05, momentum=0.1, affine=True, track_running_stats=True)
            )
            (shuffle): ChannelShuffle()
            (se4): Sequential()
          )
          (6): IRFBlock(
            (pw): ConvBNRelu(
              (conv): Conv2d(160, 480, kernel_size=(1, 1), stride=(1, 1), bias=False)
              (bn): BatchNorm2d(480, eps=1e-05, momentum=0.1, affine=True, track_running_stats=True)
              (relu): ReLU(inplace=True)
            )
            (dw): ConvBNRelu(
              (conv): Conv2d(480, 480, kernel_size=(5, 5), stride=(1, 1), padding=(2, 2), groups=480, bias=False)
              (bn): BatchNorm2d(480, eps=1e-05, momentum=0.1, affine=True, track_running_stats=True)
              (relu): ReLU(inplace=True)
            )
            (pwl): ConvBNRelu(
              (conv): Conv2d(480, 320, kernel_size=(1, 1), stride=(1, 1), bias=False)
              (bn): BatchNorm2d(320, eps=1e-05, momentum=0.1, affine=True, track_running_stats=True)
            )
            (se4): Sequential()
          )
          (7): IRFBlock(
            (pw): ConvBNRelu(
              (conv): Conv2d(160, 960, kernel_size=(1, 1), stride=(1, 1), bias=False)
              (bn): BatchNorm2d(960, eps=1e-05, momentum=0.1, affine=True, track_running_stats=True)
              (relu): ReLU(inplace=True)
            )
            (dw): ConvBNRelu(
              (conv): Conv2d(960, 960, kernel_size=(5, 5), stride=(1, 1), padding=(2, 2), groups=960, bias=False)
              (bn): BatchNorm2d(960, eps=1e-05, momentum=0.1, affine=True, track_running_stats=True)
              (relu): ReLU(inplace=True)
            )
            (pwl): ConvBNRelu(
              (conv): Conv2d(960, 320, kernel_size=(1, 1), stride=(1, 1), bias=False)
              (bn): BatchNorm2d(320, eps=1e-05, momentum=0.1, affine=True, track_running_stats=True)
            )
            (se4): Sequential()
          )
          (8): Identity(
            (conv): ConvBNRelu(
              (conv): Conv2d(160, 320, kernel_size=(1, 1), stride=(1, 1), bias=False)
              (bn): BatchNorm2d(320, eps=1e-05, momentum=0.1, affine=True, track_running_stats=True)
              (relu): ReLU(inplace=True)
            )
          )
        )
      )
    )
    (last_stages): Sequential(
      (conv_k1): Conv2d(320, 1280, kernel_size=(1, 1), stride=(1, 1))
      (avg_pool_k7): AdaptiveAvgPool2d(output_size=(1, 1))
      (flatten): Flatten()
      (fc): Linear(in_features=1280, out_features=10, bias=True)
    )
  )
)